CIFAR10-CNN-Model.pt (torch_old, 326768 bytes, 10 tensors)

conv1.weight f4 [6, 3, 3, 3]
00000000: 8869 f23d ba2d 633d c8e6 6cbe 5b0f be3e
00000010: f823 aabd 9fd1 13bf 1e81 353e 15db b1bd
00000020: 9c8d 91be 0ef9 a33e a933 203d 8189 a4be
00000030: 8d1e bb3e e52a 473e 1ac8 79be 3835 a43d
00000040: c550 763e 873c 11be 3c3f 323e 87de f8bd
00000050: 505e 22be 32d4 863e 5182 81bd 42c7 edbe
00000060: 0a5a 603e 3d9e 1a3e 7fe8 98be d3a5 9bbe
00000070: b565 46be eba8 633c 0b93 32be 2d75 0abc
00000080: 65ca 56be 1916 95be 4cf7 afbe 8c6a bcbe
00000090: c6cc bb3d cff8 233e 5328 133e 8afa b63c
000000a0: 5a77 0d3e 2321 563e 85c3 7d3d 8355 b5bc
000000b0: 6ac1 f5bd 6e41 563e 8395 a73d 27f8 c63d
000000c0: d755 bf3e 700c 7d3e 4d3e 143e fce8 413d
000000d0: 44d5 e9bd 32de 0bbe 9b41 69be c88e 91be
000000e0: 6770 70be fb1b b2bc 342a bd3b 9e7c 51be
000000f0: fe42 213e 2921 8aba 2cd0 0c3e 7504 a0be
00000100: 97ed 2ebe 65d5 2e3d 5fea 98be 54f6 5fbe
00000110: 6103 053e 6d48 28be d388 403d 9393 30be
00000120: a297 d8bc 1273 af3e 6259 a13e 05d7 063e
00000130: 30dc ba3e 1134 c83e eab1 5b3c 1ccb 9c3e
00000140: dd02 903e 6052 b8be e044 c7be 00b5 24bd
00000150: be2a 023e a565 953d 1c45 a93e 08cf d23d
00000160: f782 d03e a36b aa3e a9bf 20be af7d 0abf
00000170: 0ba8 aabe e4d7 043e 6279 06be b1d6 5d3a
00000180: 3c13 f83d 75d5 7d3e c275 643e 73e8 69be
00000190: 36de 95be 5d54 98bd fe0e e73d 1684 073e
000001a0: 80e0 a6bd c7f2 623e 06cc 673d 98d4 1fbc
000001b0: 5b1e e7bd 1443 923d 1cdb ea3d 3cc9 083d
000001c0: b93a 47be 4d0d 773d dc65 a9bd bb3d 233d
000001d0: e6ec 3b39 bfde 41be b7a7 1f3d aff7 62bd
000001e0: 73ad e5bd 526a 2ebe 01a3 343d b81f d4bd
000001f0: 38e0 50be 357f 49be 8c43 66bd 7b1e 323e
00000200: 0bd0 42be 6f64 40bd eb94 26be 649b 183b
00000210: 3fd5 2bbe 1942 b63d 4f5b 29be 05ec 4abe
00000220: 07ff acbe e39d a0be 9557 15bd 3da4 e23d
00000230: 7b25 de3c 18e5 743d a6de 2f3e 558a 60bd
00000240: 4f2c 8a3e 229a 7dbb 8262 f53d c3ff d33e
00000250: df08 cc3b 8381 8b3d 65ee 0c3e ecf6 413e
00000260: 2b73 813e 4ad5 653e e494 433e f696 4d3e
00000270: 04b2 b03d 001a 89bd 2493 28be b994 8fbd
00000280: 59c5 e73c b295 9dbe
0.11836535 0.05546353 -0.23134911 0.3712109 -0.08307642 -0.5774173 0.17725036 -0.08684365
-0.28428352 0.3202595 0.039111767 -0.32136157 0.36546746 0.19449957 -0.24392739 0.08017963
0.24054249 -0.14183246 0.17406934 -0.12151819 -0.1585629 0.26333767 -0.06323684 -0.46441084
0.21909347 0.15099426 -0.2986488 -0.3039995 -0.19374736 0.013895254 -0.17438905 -0.008450788
-0.20975645 -0.29118422 -0.3436836 -0.3680004 0.09169917 0.16012882 0.14370851 0.022336263
0.1381506 0.20911078 0.06195404 -0.022135502 -0.119997814 0.20923397 0.08182814 0.097153
0.37370178 0.24711776 0.14476891 0.04734133 -0.1141763 -0.1365898 -0.22778933 -0.28429246
-0.23480378 -0.021741858 0.0057728533 -0.20457694 0.15748212 -0.0010538447 0.13751286 -0.312534
-0.17082821 0.042683978 -0.2986631 -0.2187131 0.1298957 -0.16433878 0.047005486 -0.17243795
-0.026439492 0.3426748 0.31513506 0.13167961 0.36496115 0.39102224 0.013409117 0.3062371
0.28127185 -0.36000347 -0.38919735 -0.040211678 0.12711617 0.07294778 0.3306054 0.10293394
0.40724918 0.33285245 -0.15698113 -0.5409803 -0.33331332 0.1297298 -0.13132241 0.00084624725
0.12113044 0.24788459 0.22310546 -0.22842579 -0.29271096 -0.07437966 0.112821564 0.1323398
-0.08148289 0.22162925 0.056591056 -0.009755276 -0.11285087 0.071417004 0.11467573 0.033395037
-0.19455995 0.06031542 -0.08271381 0.039853793 0.00017921961 -0.18932627 0.038978305 -0.05541199
-0.112147234 -0.17032745 0.044100765 -0.10357612 -0.20398033 -0.19677432 -0.05621676 0.1739444
-0.19024675 -0.04697078 -0.16267745 0.002328598 -0.16780566 0.08899326 -0.16538738 -0.19816597
-0.3378832 -0.31370458 -0.036460478 0.11066482 0.027117481 0.059788793 0.17174777 -0.054819424
0.2698693 -0.0038696607 0.119816795 0.41406068 0.0062266435 0.06811812 0.13762815 0.1894185
0.2528318 0.22444645 0.19099766 0.20077118 0.08627704 -0.06694412 -0.1646238 -0.070107885
0.028292345 -0.3077827

conv1.bias f4 [6]
00000000: 83d5 5a3e 3cf9 353e cda8 383d d868 623d
00000010: 606c 05be d353 13be
0.21370511 0.17770857 0.045082856 0.055275768 -0.13029623 -0.14387445

conv2.weight f4 [16, 6, 3, 3]
00000000: 3e3b bc3c d947 b3bd c7f8 f4bd f774 dc39
00000010: 9f30 933c c3fe 53bd d4ce 8bbd 6746 82bd
00000020: a744 80bd 7045 9dbd ecef 04bd 66bd d2bd
00000030: c901 b1bc 9403 e0bd 8614 41bc e818 3fbd
00000040: a476 87bc 85d5 f3bd be85 1c3d c020 d8bd
00000050: ef8f 96bd af13 103c dd67 aabb e707 bb3b
00000060: 3741 b6bc 589d f43b fac9 e2bd f621 6dbd
00000070: 1fb5 b23d 95fb 15be 6e30 a63d 4ba1 d9bd
00000080: 3c14 8d3d 6ea3 6dbd 2ffb a03d 4bb8 e4bd
00000090: 787e a03c 2c37 9fbd b815 fdbc 3a2d 023e
000000a0: 0537 05be 9061 82bc fc90 ce3d 4424 df3d
000000b0: a414 6c3d f9d2 5f3c 73a6 27be c832 d0bc
000000c0: 44a2 f83b 0031 10bd 35d8 6e3d 4476 debd
000000d0: 45d2 c33c 0342 bdbb 83fb c33d b4c5 9b3e
000000e0: 9e4b a23d d425 a83e 86b0 283e 6849 acbe
000000f0: 0cf9 23be 4068 1abf 5e40 c1be e372 903e
00000100: 4a13 d83d c33c 23be 015c 0e3f 2b3a dbbc
00000110: bb01 8ebd d7e5 7e3d 4d22 6cbe 8906 11be
00000120: 9cca 1bbd 7f24 3abe b55a fe3c da91 a0be
00000130: 9605 643c bd32 773e ce02 723e 165b 213e
00000140: b56d 773c a676 28be ace7 1bbf 5fee 913e
00000150: c83f b8be 6c5e 403e e154 313e 730b 133e
00000160: 17d4 363e 5602 79be dfe9 77bd d97f a53d
00000170: 0405 a33d c5ee c1bd 1642 83bd a6a6 1a3d
00000180: f4d3 f13d a4c6 6abd 79c8 bb3c 6094 953d
00000190: c8ba 4cbd 4ad7 8abe 04f7 e6bd 1e6d fcbe
000001a0: 2706 ef3c c782 c7be 42be 33be dac8 653e
000001b0: 8ab9 8a3d 563d 5ebd 93bf 0e3d 5e11 d53e
000001c0: 2b66 babd b22c 973e e613 263e 21e6 723d
000001d0: de46 b33e 1d9f 9cbc 5aa4 11be 8ceb 86be
000001e0: 130d 4e3e 87ee a03e 51d2 7d3e 1aec a1be
000001f0: 9637 113b e1f6 e63d 2546 0b3d b04d 6e3e
00000200: a0a0 5abd fc10 063d 8988 3f3e dcce 06be
00000210: 5aae b2be 8fc9 6b3d 8353 ac3d d401 fe3c
00000220: a2c6 3dbe b092 283e 5891 183e 172d 89be
00000230: 3560 97bd 2d48 863e 6d0f 163e fbb8 2c3e
00000240: 36f7 64bd f433 213b 8136 bfbd 314e ca3d
00000250: 007e 253e e98c 65bd f433 553d 5642 b3bc
00000260: 7698 6dbc 60cc ebbd 2e11 81bd 71a7 7dbd
00000270: 13e2 e8be b011 90be 694c e4bd edb0 91be
00000280: 7f23 18be 2865 6cbe 11a0 50be 0de8 aebe
00000290: a5fd d0bd 3b7e 85be 8232 b8be b2da 07be
000002a0: 309e ce3d fb4a 4abe e4bf c83d 65e7 0b3b
000002b0: 1595 03be 1bd5 f63d 4741 98be bd18 cbbe
000002c0: b918 34be e1bd a03e 7efa d93e 552f 8a3e
000002d0: aefd 893e 7bce 5b3e 15dd 583e a6bf 6e3d
000002e0: 35a7 9dbe 5f53 b0be 3cab ae3c 163d e3bd
000002f0: 2316 7c3d 904c 813e 36ae 493e 0e5a 463e
00000300: 0609 c53d b453 0d3e 9ab3 2b3d cda5 3dbe
00000310: 3c5a f53d a980 67bd e783 eabd b4e1 41bd
00000320: 3e33 6fbd 6db3 87bc 59a8 20bd d1fe d03d
00000330: 271b 00be 4613 ea3d 3662 3dbd 8f6d 003f
00000340: 8e50 6c3e c553 353e fb4d c63e 8a2e 35be
00000350: 74cc b6be bd2d 25bd 2d1e c2be 0399 26bf
00000360: a0ad 60bc 022b 973d e4ed 603a 7678 e8bb
00000370: 0813 04be 8bd8 f9bc 4c32 68be 7dfa e4bd
00000380: 87f2 b4bd 8382 883c 7d47 e53d 3ec1 b03d
00000390: 51ea 75be f021 6ebe 942e 15be de0e 9a3d
000003a0: 19f5 d93e 3981 0b3e 977d 88be 3ec2 99be
000003b0: 25f4 32be fde1 763d ff1a ee3d 46b5 1a3e
000003c0: 6086 723e 8326 333d e416 113e e449 9f3d
000003d0: 30b7 10be 959b 8ebe 027b d23e 9454 ac3e
000003e0: 24ee f73e ca54 5abe 27c0 06bf 0add 26be
000003f0: a00d 843c 60c5 93bc 20bd e63b c756 9ebd
0.022977468 -0.08753938 -0.11961513 0.00042048816 0.01796752 -0.05175663 -0.06826559 -0.063610844
-0.062630944 -0.0767926 -0.03245537 -0.10290031 -0.021607297 -0.109381825 -0.011784678 -0.04665461
-0.016536064 -0.1190596 0.038213484 -0.105531216 -0.07351672 0.008793755 -0.0052003697 0.005707729
-0.022247894 0.007465046 -0.1107368 -0.057893716 0.08725952 -0.14646752 0.08114706 -0.10626467
0.06888625 -0.058017187 0.078604095 -0.111679636 0.019591555 -0.07774195 -0.030894145 0.12712565
-0.1300927 -0.015915662 0.10086247 0.10895589 0.057636872 0.01366114 -0.16372089 -0.02541484
0.007587703 -0.03520298 0.05831166 -0.10862401 0.023903975 -0.0057756915 0.095694564 0.30424273
0.07924579 0.3284136 0.16473588 -0.33649755 -0.16012973 -0.6031532 -0.3774442 0.28212652
0.10550554 -0.15941148 0.55609137 -0.026761135 -0.06933924 0.06223091 -0.2305996 -0.14162649
-0.03803502 -0.18177985 0.031049112 -0.31361276 0.013917347 0.24140449 0.23633882 0.15757403
0.01510184 -0.16451511 -0.6090038 0.28502175 -0.3598616 0.18786019 0.17317535 0.14359836
0.17854343 -0.24317297 -0.06052577 0.08081026 0.07959941 -0.0946937 -0.06409089 0.037756585
0.11808005 -0.057318345 0.022922741 0.07303691 -0.049982816 -0.27117378 -0.11277583 -0.49302
0.029177738 -0.38966963 -0.17553046 0.224399 0.0677367 -0.054257713 0.03485067 0.41614813
-0.09101518 0.29526287 0.16218528 0.0593015 0.35015005 -0.01911884 -0.14222851 -0.26351583
0.20122175 0.31431982 0.2478726 -0.31625444 0.0022158376 0.11277557 0.034002442 0.23271823
-0.05337584 0.03273104 0.18704428 -0.13164848 -0.34898645 0.057565268 0.08414366 0.031006731
-0.18532804 0.16462207 0.14899194 -0.26792213 -0.07391397 0.2622694 0.14654322 0.1686744
-0.05589982 0.0024597617 -0.09336568 0.09878195 0.16161346 -0.056042586 0.0520515 -0.021882217
-0.014501682 -0.11513591 -0.06302105 -0.061927263 -0.4548498 -0.28138494 -0.111473866 -0.28455296
-0.1485729 -0.23085463 -0.2037356 -0.34161416 -0.10204629 -0.2607287 -0.35976034 -0.1326702
0.100887656 -0.19755165 0.09802225 0.0021347639 -0.12849839 0.120523654 -0.29737303 -0.3966731
-0.17587556 0.31394866 0.42573923 0.26989236 0.26951355 0.21465485 0.21178086 0.05828824
-0.3079163 -0.34438607 0.021321885 -0.110956356 0.06154455 0.25253725 0.19695362 0.1937029
0.09620862 0.13801461 0.04191933 -0.18520279 0.119801015 -0.056519184 -0.114509396 -0.047334388
-0.058398478 -0.016565049 -0.03922305 0.10204852 -0.12510358 0.11429457 -0.04623624 0.50167173
0.23077604 0.17707737 0.3873137 -0.17693534 -0.3570286 -0.040326823 -0.37913647 -0.6507723
-0.01371327 0.0738125 0.00085803703 -0.007094438 -0.12897885 -0.030498764 -0.22675437 -0.11180589
-0.08835321 0.016663795 0.11195276 0.08630608 -0.24015166 -0.23255134 -0.1456855 0.07522367
0.42569807 0.13623513 -0.26658317 -0.30031008 -0.17475946 0.060274113 0.11626243 0.15108213
0.23684072 0.0437379 0.14168888 0.077777654 -0.1413238 -0.27853075 0.41109473 0.33658278
0.48423874 -0.21321407 -0.5263695 -0.16295257 0.016119778 -0.018038452 0.0070415884 -0.07731395

conv2.bias f4 [16]
00000000: f0b6 e1bd 60f1 083e 80cb fbbd a0fa 8d3d
00000010: 5534 d4bd fb3d 793e eb1b 86bd 1d09 8cbc
00000020: a4e3 8fbd 68f1 14be afe7 5a3c a446 f43e
00000030: 1e83 f53c 0542 623d 671d 8c3e 0c14 f7bb
-0.11021221 0.13373327 -0.12294674 0.069325686 -0.10361544 0.2434005 -0.06548294 -0.01709419
-0.07025841 -0.14545214 0.013360902 0.47710145 0.029969748 0.055238742 0.27366182 -0.0075402316

fc1.weight f4 [120, 576]
00000000: ef79 213d 801c 6c3c a60e e93c 1e0d eebc
00000010: 3092 70bb 9439 0dbc 8004 12bb 003b ddbc
00000020: 10fb 4d3c 88c4 d2bc f60b ac3c b8e0 10bd
00000030: 6205 c63c 9b84 efbc b833 e0bc 16e6 74bc
00000040: 8cf2 14bc ca40 1abd d7c9 093d 20a1 eb3a
00000050: 7c90 333c 20f6 7dbc c0dc 82bb 1e07 a3bc
00000060: 0802 afbc 98b5 e8bc d220 e33c c69c c4bc
00000070: 3608 31bc 0033 a2bb abc5 063d 3127 27bc
00000080: a7b7 1d3d 4267 ec3c fe57 b33c de87 d03c
00000090: 0639 003b 7313 06bc 5de0 3abd bc8c a43c
000000a0: 9063 e0bb d920 de3c a7f2 9bbd 7afb 5dbd
000000b0: 6654 123d 79b2 413d 2a15 a23c e354 41bd
000000c0: 5410 dabc 0d04 8b3c fd0a 94bc 0e9b 8cbc
000000d0: 9d1b 82bd 04b1 723b 464e 3e3c e9b1 80bc
000000e0: e6bd 2ebd 73a6 78bd 31bc b8bc 356c c1bb
000000f0: 86b8 4a3d dbe5 92bc 15cd 88ba fcd5 febc
00000100: 2f99 07bd 0784 9fbd ddba 59bd 9223 90bc
00000110: 7387 523c 23a5 80bd 6780 a0bd 9ffc ca3b
00000120: 44aa 40bd 254c 96bc 628f ca3a ac61 15bc
00000130: 2af1 443d 3bbc a03b 7449 2a3c 752e f9bc
00000140: c0c6 ad3c e4bc 4f3d 4494 793d 7473 8ebd
00000150: 9d71 1b3c 3469 0ebd 8bba eb3c 526e 0ebd
00000160: f644 78bc db95 8dbd 1237 49ba e3bf 8b3c
00000170: ec02 56bb a6b9 5abd 4539 57bd 2e86 89bc
00000180: 6e0b 16bc 39d7 34bd 59ed 29bb d3c5 d0b9
00000190: 53e5 04bd a222 1dbd c538 30bd d962 24bd
000001a0: 5bc8 4abd 84cd c2bc 1a3a 5dbd 5aca a7bc
000001b0: 35be 8cbd 0043 a4bc 52e7 bb3c 3d94 e3bc
000001c0: 8460 f4bc 84d8 edbc 51cc 19bd 23bb 62bc
000001d0: 09b5 aabc 5cb5 82bd f9aa ad3b 9f75 cb3b
000001e0: 3016 fdbc eb1b 03bd 6b4a 08bd 54e6 69bd
000001f0: 806d fabb 5ef7 0ebb f296 51bd 2f39 1abd
00000200: a008 26bd c1e2 32bd 4f6c cfbc 4ac4 6abd
00000210: 699f 8ebd 25d0 08bd 2c0d 95bd 21f1 49bd
00000220: 73f7 8fbd 91ba 85bd d244 b7bc 3d51 2ebd
00000230: cba5 b63c 2681 90bc 72ca 97bd 0ef9 5ebd
00000240: 078e 8dbd 1a41 08bd c8dc 12bd 939d 3bbc
00000250: e910 663c fc24 253d 0a13 85bd 952f babc
00000260: 45f8 f1bc f4cc 8bbd ee51 cdbc bd3f b13c
00000270: 0979 bfbc 1e70 62bd 4d6f c1bb 9b3f 9bbd
00000280: 5367 6bbd dafb 22bd 40b5 87bc ad0e 24bd
00000290: 49af 543b 9caf e5bc 4cb9 66b9 5137 cebc
000002a0: 7b31 503d 4303 593d 9d2a 6dbc 8226 3fbc
000002b0: 1a22 05bd 6441 a4bc d571 edbc 2bcd 3e3a
000002c0: 982a 6abd 09d0 eabb 4dfe f8bb 0955 50bd
000002d0: 6f23 003d fccd 1ebd 5b7e c3bc 20e8 85bc
000002e0: 052e f63c c19d b03c 6203 29bd 6b81 83bd
000002f0: afae ed3b 1b47 763d 7159 a6bc 5e07 18bd
00000300: 5c75 d0bc feec 64bd 1d24 c5bc 3388 c5bc
00000310: d40a 8dbc 45df 06bd a8a5 903b fbe6 9dbc
00000320: 6e10 dabc c011 413a b6e3 96bd 7fde 88bd
00000330: 234d 0cbc 08bc 183d 8cff c3bc d909 6dbd
00000340: 4e6b 78bd 6cc3 abbc f8c2 bdbc 0044 8abd
00000350: 0722 8cbc 103a 65bd b057 8abd fc87 8abc
00000360: 7193 08bd 1255 9cbd ae85 2ebd dd4c 6fbc
00000370: 95d8 78bd acc3 3cbd b881 05bd 638a 75bd
00000380: 96ed 35bc dbb4 96bd c754 f8bb 0284 a5bd
00000390: 5b14 92bd 448b 42bc a84f 233c 5366 06bd
000003a0: 40d1 57bd 1445 94bc ef23 31bc 0836 9bbd
000003b0: ebe4 57bc 0c53 f13c b64e cb3c 3c71 2abc
000003c0: 579e 16bd 3976 e5bc 61ea c0bc 088a 973c
000003d0: e579 f33c c028 ebbc c9c0 cbbc caea 9cbd
000003e0: 7db6 cbbb 81b4 c7bc 03ba ab3c c99f bc3c
000003f0: 7f81 55bd c2d8 d2bc 175e c33c 5719 78bc
0.039422926 0.014411092 0.028449368 -0.02905899 -0.0036708228 -0.008619685 -0.0022280514 -0.027005672
0.012572065 -0.025728479 0.021001797 -0.03537056 0.024172489 -0.029238036 -0.027368411 -0.014947435
-0.009091031 -0.037659444 0.033639755 0.0017977096 0.010959741 -0.015500575 -0.0039936006 -0.019900855
-0.021363273 -0.028406903 0.02772561 -0.024000537 -0.01080518 -0.0049499273 0.032903355 -0.010202215
0.038505223 0.02885783 0.021892544 0.025455412 0.0019565239 -0.008183348 -0.045624126 0.020086639
-0.0068478063 0.027115272 -0.07614642 -0.054194905 0.03572502 0.047289345 0.019785482 -0.047200095
-0.026619114 0.016969705 -0.018071646 -0.01716378 -0.06352923 0.003703178 0.0116153415 -0.015709834
-0.04266157 -0.060705613 -0.022550674 -0.005902792 0.04949238 -0.01793187 -0.0010437096 -0.031107895
-0.03310507 -0.07788854 -0.053156722 -0.017595086 0.012849676 -0.06281497 -0.07836991 0.0061946656
-0.047037378 -0.018346855 0.0015454108 -0.009117525 0.048081554 0.0049052513 0.010393489 -0.03041766
0.021212935 0.05071725 0.060932413 -0.06955615 0.009487537 -0.0347683 0.028775474 -0.03477318
-0.01515316 -0.06913348 -0.00076757476 0.017059272 -0.003265555 -0.053399704 -0.05254485 -0.016787615
-0.0091579985 -0.044150565 -0.0025928824 -0.00039820242 -0.032445263 -0.038363107 -0.04302289 -0.04013333
-0.04950748 -0.023779638 -0.054010488 -0.020482231 -0.068722166 -0.02005148 0.02293745 -0.027780646
-0.029831178 -0.029033907 -0.037548367 -0.013838562 -0.020838277 -0.06382248 0.0052999225 0.00620909
-0.030894369 -0.032009047 -0.033274096 -0.057104424 -0.007642448 -0.0021814923 -0.051169343 -0.03765219
-0.04053557 -0.04367328 -0.0253202 -0.057316102 -0.06963999 -0.033401627 -0.07277903 -0.049302224
-0.07029619 -0.06529725 -0.022371683 -0.042557944 0.022295853 -0.017639708 -0.0741166 -0.054436736
-0.06911855 -0.03326521 -0.035855085 -0.011451143 0.014042118 0.040318474 -0.06497772 -0.022727767
-0.02953733 -0.06826201 -0.025063481 0.021636838 -0.023373144 -0.055282705 -0.0059031607 -0.07580491
-0.057471585 -0.039790966 -0.016565919 -0.04005306 0.003245311 -0.028037839 -0.00022003538 -0.025172861
0.05082844 0.052981626 -0.014475492 -0.011666896 -0.032503225 -0.020050712 -0.028984943 0.0007278497
-0.057169527 -0.007165913 -0.0075986744 -0.050862346 0.031283792 -0.03877066 -0.023863962 -0.016346037
0.03005124 0.021559598 -0.04126299 -0.06421169 0.00725349 0.060126405 -0.02030632 -0.0371164
-0.025446586 -0.055890076 -0.024065072 -0.024112796 -0.017217077 -0.03292777 0.004414279 -0.01927518
-0.026619162 0.00073650107 -0.07367651 -0.06683063 -0.008563313 0.037288696 -0.023925565 -0.05787072
-0.06064921 -0.020967208 -0.023164257 -0.06751251 -0.01710607 -0.055963576 -0.06755006 -0.016910546
-0.033343736 -0.076334134 -0.042607956 -0.014605728 -0.060753424 -0.046085045 -0.032594413 -0.05994643
-0.011104008 -0.07358714 -0.0075784656 -0.08081819 -0.07132789 -0.011874024 0.009967722 -0.032812428
-0.05268979 -0.018099345 -0.01081179 -0.07578665 -0.013177137 0.029458545 0.024817806 -0.010402974
-0.0367721 -0.028010475 -0.02354926 0.018498436 0.02972121 -0.028705955 -0.0248722 -0.0766197
-0.0062168227 -0.024378063 0.02096272 0.02302541 -0.05212545 -0.025738124 0.023848576 -0.01514276

fc1.bias f4 [120]
00000000: 3297 1ebd 9a7a b1bc 973f 60bd cfb3 b6bd
00000010: fa3f 39bc 28f4 e2be 6c49 263d 7f4f 343f
00000020: a66c 1bbd b871 89be 20fa 80bd 88e8 2e3f
00000030: 53b1 933b 8988 d6bc 77e7 39bc c3b6 983e
00000040: d317 073d e5a7 0abe b60a 233f 0d3e 62be
00000050: be27 31bd 52b2 26bd b064 723d 38c2 be3e
00000060: b5e2 0e3e 3cc7 cabd f11e 0c3e 7acb 7fbd
00000070: 85f4 50bd e9a5 1a3e 6935 d3bd c495 5a3d
00000080: d6be 8ebd bf26 563d 7149 5e3e 3d11 23bc
00000090: 8517 60bd 6fba d83c 5c2d 16bd 24f2 a0be
000000a0: dfb9 6a3d 8a85 4e3e b9dc 3bbc be63 fd3e
000000b0: e42c 71bc 9b80 5bbd 98a8 bc3d 9394 4ebd
000000c0: b8da 15bd 1b98 86bd 7a0d 60bc 2c01 5dbd
000000d0: 6b49 8a3e a0e8 9fbe 22bc eabc a48f 1bbd
000000e0: 0228 9cbb 4364 77be 701d 91bc 262e 82bd
000000f0: 9000 0a3e 649b bfbc cfc5 c0bc e766 61bd
00000100: d432 38be 660f 973e 4402 5cbc 19d6 09bd
00000110: a492 67bd 87c7 2bbd 9c6b adbc d880 9ebc
00000120: 13bd 823e 35db caba ae35 9ebe e08b dabc
00000130: a851 033f d0c0 08be b84f 4dbd 8ddc 203f
00000140: e67d da3e 5526 5a3e 6964 0bbe 1492 41bd
00000150: ce50 a1bd 4c1f 84be a290 e03e e956 dcbc
00000160: 5753 b9bc 3ad7 eb3d 2f26 dd3d 5bc9 80bd
00000170: 4dee 5d3d 899b f2bc d546 a0bb 9c90 193f
00000180: 714b f2bc 65cd 98bd ada8 08bd fb42 ea3d
00000190: fb87 0bbe bf0d 8dbe 5d8e 19bf 7d5e dd3e
000001a0: c517 f13e 979e 1ebd 53a1 b4bd a795 7cbc
000001b0: e4bb 803e 7b0d 72bd 3b64 91bb f439 ff3e
000001c0: f8ed a2bd 3892 5f3e 9358 053e 4eb2 47bd
000001d0: 5fb6 69bc 2675 59bb f424 2dbd 9a88 913e
-0.03871841 -0.021664906 -0.054748144 -0.089210145 -0.011306757 -0.443269 0.040597364 0.704338
-0.037945412 -0.26844573 -0.062977076 0.68323565 0.0045072227 -0.026188152 -0.011346689 0.29826936
0.032981705 -0.13540609 0.6368822 -0.22093983 -0.04325079 -0.040697403 0.059178054 0.37257552
0.1395367 -0.09901282 0.13683678 -0.06244991 -0.051014442 0.15102352 -0.103129216 0.053365484
-0.06969993 0.052283045 0.21707703 -0.00995284 -0.05470993 0.026456086 -0.03666435 -0.3143474
0.057306167 0.20168129 -0.011466199 0.4949016 -0.014720175 -0.053589445 0.09211844 -0.05043466
-0.03658554 -0.065719806 -0.013675088 -0.053956196 0.27009138 -0.31232166 -0.028654162 -0.037978783
-0.0047655115 -0.2415934 -0.017714232 -0.06356458 0.13476777 -0.023389526 -0.023531822 -0.055029776
-0.1798814 0.29503936 -0.013428275 -0.033651445 -0.05653633 -0.04193833 -0.021169476 -0.019348547
0.25534877 -0.0015476706 -0.3090033 -0.026678026 0.5129647 -0.13354802 -0.050124854 0.62836534
0.42674178 0.21303685 -0.13612522 -0.04725845 -0.078767404 -0.25805128 0.43860346 -0.02689691
-0.022622747 0.115156606 0.107982986 -0.062884055 0.05418234 -0.02961518 -0.0048912563 0.5998628
-0.029576989 -0.07461051 -0.033363987 0.11438557 -0.13626091 -0.2754955 -0.59982854 0.4323615
0.47088447 -0.03872546 -0.08819833 -0.015416539 0.2514335 -0.059094887 -0.004436997 0.49848902
-0.07955545 0.21833122 0.1302207 -0.04875403 -0.014264672 -0.0033181398 -0.04227157 0.2842453

fc2.weight f4 [84, 120]
00000000: e435 72bc 98cf 783d 2fde df3d 6dab 823e
00000010: c91a 35bc ba93 8e3d 6d8e 5c3e 4e75 26be
00000020: 62f7 8fbb 147f 793e 6ad4 9f3c ce58 bd3e
00000030: 99b1 683c 54cb b13c 7d9a 94bd 7f6f b5be
00000040: 701f 69be cb9d 123e afaf 213d c8a8 05be
00000050: df73 bdbd 480a c3bc 9537 68be 6949 41bd
00000060: ddfe 323e 6eee 253d 179e f83c aedd c33d
00000070: f18a 87bd 5c45 d43e ed21 ac3d 4a0d e43c
00000080: fe48 1d3e bd30 b9bd 41b4 913e 19cc 72bd
00000090: 2176 7a3d d9ff d63e 1a4a fc3d 0bea 523d
000000a0: 9d06 a1bd 3a27 6fbe 41f5 873d 25d8 bb3e
000000b0: 8af5 2b3d 8297 ac3b ead6 7bbe a7ec adbd
000000c0: 6a69 bd3d 61fe a9bd 80ff 1fbd fa43 5abd
000000d0: 1e32 33bc 09c6 8b3d 3f9a 3bbd 47d3 a23d
000000e0: ce04 29bd f907 6e3d 769b 01bc 4907 ebbd
000000f0: 0a27 aa3e 8180 04bd 8819 58bd d5ca aebd
00000100: b6d1 cabd 618a 623e 56a0 1a3c e025 e5bd
00000110: 6924 843d 2fd2 543d 1011 19bc 30d5 94bd
00000120: 9dcd ae3e 90da 9dba da66 d8bd 7990 f7bd
00000130: 8050 8b3d edf9 533e bcb3 6dbd edd0 19be
00000140: a7b4 9d3e 1b5b a23c 567b d4bc ccdb d73d
00000150: dff5 3fbc be1d de3d 38f8 073e c1f3 c23e
00000160: baaa ae3d 2718 6c3e 0cb3 39bd 3820 51bd
00000170: db91 393e 4da6 74bd 0e43 a4bc bf94 5b3e
00000180: b67a 243d 2b79 cb3c eeeb 1fbd 7e0c 96bd
00000190: 632d 053e 3609 803e 72fc cabe 3f6f c53d
000001a0: 25e4 96be 52df 69bd f72c 87be 0c78 a6bd
000001b0: 93ba 363d 8c35 0bbd fe9d 9f3d 30eb b13e
000001c0: 80d7 ccbd e35b 1d3e ddf0 df3d 83b7 b3bd
000001d0: 83b2 cf3d b0e2 733e 3c48 b43d 21a7 b43e
000001e0: 0661 ec3c b8eb 93bd 5abb 9ebd ff1a 183e
000001f0: 40ed d6bd 7aec a73e ff89 42be ddc8 7c3c
00000200: d210 1fbd 5990 a03e ef73 45bd d05d 113e
00000210: 3353 823d 06c4 e33d f59d 843d 79c8 46bd
00000220: 0a30 25be e5f5 22bd 7b3c 35be 0c3a b93e
00000230: 8e5b 073d 22a9 26bd 1c59 41bd a9a5 973d
00000240: 6ce9 b13d 6550 7abe 9998 5bbe e303 73ba
00000250: 8476 ccba e5a0 dc3e d0e7 afbd dc3e 863b
00000260: ac19 6d3e b4ba f5bd 9757 84bc 9976 8f3d
00000270: 409d 073c 0aaa bf3e ecaa c43d d95a 4cbe
00000280: 77c9 8a38 0281 3cbe bba5 a5bd faa0 133d
00000290: 53ac 633c ddc0 24bd 3d4b f6bd 5849 7cbd
000002a0: 1e72 d2bd 1331 7d3c ef62 44bc d823 353d
000002b0: fc2e 31bf 6284 373e 501b 963c 4932 cfbb
000002c0: 46cd d43d f4f0 dcbd a930 6bbd 741e 7f3e
000002d0: c571 693e 7057 2cbd e1a2 2a3d 26c0 3ebd
000002e0: 6ac0 21bc 3485 163e be02 60bd 84e6 583e
000002f0: 4302 5e3c 2242 40bd bfb7 893d 8ea5 69bd
00000300: e80a 893d e0b9 b0bb ee34 b1bd bde1 2f3e
00000310: c6a9 563e 5441 02be c842 abbb ce1a 02bf
00000320: 1c9d 253e 1aa1 8cbd 97f8 0ebf 579e 1d3d
00000330: ed5c b43c 015f 09be 47eb f2be 6eb0 073d
00000340: a267 d1bd 3c76 2c3e 6b66 51bd 4a82 493c
00000350: e927 a33e ed6e 133d e753 45bc 0c46 c33c
00000360: 0764 06bd f90f 523c d94c 3fbd cdcd d73d
00000370: 7f5e 2a3d 0097 023e be4f 82bd 0630 473e
00000380: 0ec2 28be e3ea 0d3e a5d8 3d3d 8775 cc3c
00000390: b8b8 4e3d 104c 2fbd 8e7a 153c e476 8e3e
000003a0: cd20 be3c cfad 86bd 84eb 0fbe 9a45 ad3d
000003b0: a92e ab3d c228 c03d 8e5d d63c 0aa6 703e
000003c0: 617e b4bd dfc8 6a3b 8860 0d3d 7f4c 10bd
000003d0: f916 babd 935b 383e ea51 913e ac5a 973d
000003e0: 9415 efba 6a58 573a 6c42 2fbd 3b0f a4be
000003f0: 1c9d e33b d134 1f3d 4b90 493c 3159 32be
-0.014783356 0.06074485 0.1093105 0.25521412 -0.011053749 0.0696177 0.21538706 -0.16255686
-0.004393504 0.24364883 0.019510467 0.36981815 0.014202499 0.0217034 -0.07256029 -0.35436627
-0.22765899 0.14318006 0.039474186 -0.13052666 -0.09250616 -0.023808613 -0.22677453 -0.04718915
0.17480035 0.040510587 0.03034882 0.095637664 -0.06618298 0.41459167 0.08404908 0.027838368
0.15359876 -0.09042499 0.28457835 -0.059276674 0.061147813 0.4199207 0.12318821 0.051492732
-0.078625895 -0.23354807 0.06638575 0.36688343 0.04198221 0.0052670846 -0.24593702 -0.084924035
0.09248622 -0.08300472 -0.039062023 -0.053287484 -0.010937242 0.068248816 -0.045801397 0.07950454
-0.041264348 0.058113072 -0.0079106 -0.11475999 0.3323291 -0.032349113 -0.052758723 -0.08534781
-0.099032804 0.221231 0.009437641 -0.11188865 0.06452257 0.05195826 -0.009342447 -0.07267225
0.34141245 -0.0012043286 -0.105664924 -0.12088103 0.068024635 0.20700808 -0.058032736 -0.15021105
0.3080189 0.019818833 -0.025937717 0.1053997 -0.011716335 0.108455166 0.13278282 0.38076594
0.08528657 0.23056088 -0.045336768 -0.051056117 0.18122046 -0.05972891 -0.020051505 0.21443461
0.04015609 0.02483805 -0.03904336 -0.073266014 0.13005595 0.25007027 -0.39645725 0.09640359
-0.29470935 -0.05709774 -0.26401493 -0.08128366 0.044611525 -0.033986613 0.077938065 0.34749746
-0.10002041 0.15367083 0.10934613 -0.087752365 0.1014147 0.23816943 0.0880284 0.3528376
0.028854858 -0.07222694 -0.07750578 0.14854048 -0.104944706 0.32797605 -0.18997954 0.015428749
-0.0388344 0.3136013 -0.048206266 0.14195943 0.06363525 0.11121373 0.064754404 -0.04853103
-0.16131607 -0.039785285 -0.17698853 0.361771 0.033046298 -0.04068864 -0.047204122 0.07404644
0.086871 -0.2444473 -0.2144493 -0.00092702935 -0.0015599285 0.43091503 -0.085891366 0.004096849
0.23154324 -0.119985014 -0.016155047 0.070050426 0.008277237 0.37434417 0.09602913 -0.1995653
6.6178785e-05 -0.18408588 -0.08088251 0.03604219 0.013896066 -0.04022299 -0.12026069 -0.061593384
-0.102756724 0.015453595 -0.011986478 0.044223636 -0.6921232 0.17921594 0.01832357 -0.006323133
0.10390715 -0.10788146 -0.057419453 0.2491396 0.22797306 -0.042075574 0.04165924 -0.046569966
-0.009872535 0.1469925 -0.054690115 0.21181685 0.013550344 -0.04693807 0.067245 -0.05704265
0.06691533 -0.005393252 -0.08652674 0.17175956 0.20963201 -0.12720233 -0.005226467 -0.5082215
0.16173214 -0.06866665 -0.5584807 0.038481083 0.022016967 -0.13415147 -0.47445127 0.03312724
-0.102248445 0.16841978 -0.051123064 0.01229913 0.31866387 0.03599446 -0.01204393 0.023837112
-0.032810237 0.012821191 -0.046704147 0.105373 0.041594025 0.12752914 -0.06362866 0.19451913
-0.16480276 0.13859133 0.046349186 0.024958385 0.05046913 -0.04279715 0.009123458 0.2782508
0.023209 -0.0657612 -0.14054686 0.08460541 0.08358509 0.09382774 0.026167657 0.23500839
-0.08813167 0.0035825295 0.034515887 -0.035229202 -0.09086413 0.18003683 0.28382808 0.07390341
-0.0018240684 0.0008214774 -0.042787954 -0.3204287 0.006946219 0.03886873 0.0123024685 -0.17416836

fc2.bias f4 [84]
00000000: 2061 c5bc a746 963d 63fb 03bd edbf a9bc
00000010: ba28 abbd 1fdd a3bd 55b6 6b3d 44f5 c83d
00000020: e74f 163f 5d60 48be 4d62 3d3f 082a 063f
00000030: 6f37 2d3f 3411 c63e b888 a23e f69d 223d
00000040: a045 e53d 6d78 e53d 2479 b73e dda8 f43e
00000050: 35d4 99be 6af4 29be 516e 77bd c5cf efbb
00000060: 5fd3 0e3e c8e9 953e d5db 37be 4f2b c9bd
00000070: 3214 913e fa48 803e cc4a a13e 9158 41be
00000080: 7045 f03a 6f39 ac3e e95a aa3e f05a 4cbd
00000090: ecc0 2f3e ef3a da3d b549 ef3e f431 cd3e
000000a0: 5ca5 e4bc 1503 553e cdd6 a23e 3cf7 d83e
000000b0: b317 383d ff25 fabd fbdf 513f 45ff d2bd
000000c0: 11f6 893e 2228 013f bb53 d93d 65ea a23e
000000d0: 6fb3 ba3e c668 2fbb d04b 05be c719 993d
000000e0: 78cd 053e 1f8c 413e 0474 193e 8ad0 11be
000000f0: d5d8 be3e ad9b 1e3e e619 3cbd eb5e 4cbe
00000100: 7768 fabd 7864 593e 7647 ca3e 187c 35bd
00000110: 3984 8c3b f11d 3fbe 0d36 093f 1aa5 91bd
00000120: 7c54 f03d 3a4e 00be 14d6 11be 2ca1 f33d
00000130: 0de1 97be ea02 243e 3257 563e c61f 013f
00000140: 2e11 363f e813 173e 6d60 4dbe 2b88 69be
-0.024094164 0.073376946 -0.032222163 -0.0207214 -0.08357377 -0.0800116 0.057546932 0.09812406
0.5871567 -0.1956801 0.7397812 0.52407885 0.6766271 0.38685 0.31744933 0.039701425
0.111949205 0.1120461 0.3583461 0.47785082 -0.30044714 -0.16597143 -0.06040794 -0.007318469
0.13947819 0.29279923 -0.17954953 -0.098227136 0.2833572 0.25055677 0.31502378 -0.18881442
0.0018331241 0.33637568 0.33272484 -0.049891412 0.17163438 0.10655772 0.46735922 0.40077174
-0.02791088 0.20801957 0.31804505 0.42376125 0.044944476 -0.122142784 0.8198239 -0.10302595
0.26945546 0.5045186 0.106116734 0.31819454 0.36465022 -0.002676533 -0.13017201 0.0747562
0.13066661 0.18901108 0.14985663 -0.14239708 0.37274805 0.15489073 -0.045923136 -0.19958083
-0.12226956 0.21229732 0.39507645 -0.0443078 0.004288223 -0.18663765 0.535981 -0.07111569
0.11734864 -0.12529841 -0.1424182 0.118959755 -0.29663888 0.16016737 0.209317 0.5043911
0.71119964 0.14753687 -0.20056315 -0.2280585

fc3.weight f4 [10, 84]
00000000: f1ef 283e a7b3 c03c dc80 68bd ce01 f9be
00000010: fbad 2cbe 3171 73bd 49cc 303e aab6 e43d
00000020: 3f32 fdbe 9549 87be f885 8ebe be1a a5be
00000030: 6efe 0dbf 79fe f3bc 4aa4 0d3d 0b00 a8be
00000040: 425b 0f3e 5aed 8fbe 00e6 9abe 51fe ddbc
00000050: 3a7d 363e 36cc 25bd 9216 2b3e 25b6 103e
00000060: 77bc 30be d050 adbd b402 a4bc f5e2 47be
00000070: 37dd 033e f6cf f03d 0919 3dbc f7a7 1d3e
00000080: 6559 1bbe ec0c f43d 8ee2 983d a641 0bbf
00000090: e214 403e a45b b9be 096c b63c 5d18 20bf
000000a0: a9e6 a63d 6be4 90be c767 00bd 1fe2 5c3e
000000b0: 3810 dc3d 39cf 66bd c552 ffbe a9f2 62be
000000c0: 38c3 f93c 0a1a e63d 441d 013e 0748 cabe
000000d0: 6d38 08bf 1a31 9c3e 90f2 febe f50c ddbd
000000e0: ad76 02be 28cb 213d b2a0 22bf 4833 e0bc
000000f0: 7a68 3b3e c5b4 5cbe 59b8 a43c b970 2fbe
00000100: fbdd 8cbd 0533 9e3d e3c8 42be 10ec 19be
00000110: 2499 bbbd ad8d 9fbc 48e0 5a3e 3561 213e
00000120: c4e3 05bf 9984 32bd d7f8 84be dbf4 043e
00000130: 17a7 803e 6694 073d 70ce 5ebe 3a11 c93d
00000140: 5731 9ebe d4b1 063d 0155 a3bd 4801 c73e
00000150: 91fa 4fbe b2d0 f3be f73c a7be a490 6b3e
00000160: dbbf 873e 3e55 61be bd09 62bd b6c5 25be
00000170: a31e 8d3d 41fe 75bd 1481 2cbf acdd 8cbd
00000180: 9562 03bc d2ec 083e 126a d4bd 2f7c 013d
00000190: a99f 23be 3794 80be acfb 4cbe 5bab f4be
000001a0: 06be 813e f46b c3bd a24f 443e 7d3f c5be
000001b0: a7d8 abbd dd5d d8be 40e4 04bd ad4c 04bc
000001c0: 053b 8d3d 84a0 ba3d 0209 173e 5af8 343e
000001d0: da91 8f3e 8120 be3d b9db 1c3e b69b a2bd
000001e0: 7ca0 45be 6b1f 023e a875 023c 3697 a6bd
000001f0: 4b1c 863d 7af3 7f3d 0dea f6bd c658 0ebe
00000200: 86d1 9a3d 0426 0c3e 30c1 8ebe 1b39 ffbe
00000210: cc55 89bd f230 e4bc 029c c83d 083d d4bd
00000220: cb60 49be ae27 d83d 358a 70bf 3325 a8be
00000230: 6df7 6ebd 44ba 2dbe a3c9 ca3d e051 9f3c
00000240: 223a 30bf 3ede 783e 64b6 e03d cbab f2bd
00000250: 9cf4 c8bb 92c5 d8be 367f 95be 6748 87bd
00000260: 2aac 333d 949f 35bc 7838 02bf 5560 b1be
00000270: 58a4 683e c3bf 833e ef79 46be 26e0 e5be
00000280: de4d dbbd 5b64 873e eb63 02be 8e8a 3f3e
00000290: 161d 19bf 86a5 693e f002 12bf d423 9ebe
000002a0: 1089 6d3e f218 f63d f92c 583e 9a4c acbd
000002b0: 5b46 90bd 4d76 1cbe 0e9e 0fbe 4bf3 c9be
000002c0: 61bb 5bbc a2d4 3fbe 5741 eb3d 4a0b 76bd
000002d0: 63c2 bf3d 0ecb 85bd 0c05 6e3b aefe 4e3e
000002e0: 64d2 7dbd 7a2e 823e 1011 94be 4a8f a03d
000002f0: a4a6 ae3d dd8e 86bd 4c2f 33bd edcc 7b3d
00000300: 0201 6dbe 099a 903d 326b bebd d666 b7bd
00000310: aa52 84be b2e5 ccbe 3b4a 853e fa0c 1cbd
00000320: 11af 893e 9eed bcbe 10fc ecbe 89c7 03bf
00000330: 651f a63c 09af b43d d150 6cbd 48cb c6be
00000340: 4e44 fe3d 9e80 5bbd 3e11 a3bd f7a5 49be
00000350: 188a f73d 3e57 543e 894e f83c cb6b b2bd
00000360: 2963 8fbe 431c d2be eb82 933d 3c53 8dbc
00000370: e74a c3bd bcd6 0ebd 3727 803e 65f7 b7be
00000380: f044 b83b 42dc 173e aecf b5be 242a a23d
00000390: a72e 16bd 1056 13bd b48d b03b bbb8 6cbe
000003a0: e3cc 94bd 7dde 793e f30c 3d3e 57a2 923d
000003b0: 3098 29bd 2cc2 0cbd a5bd c83d 4fef 24bd
000003c0: 8c61 4abe 5160 5abe c663 b03d 6b92 d43d
000003d0: 0689 903e 691d 89be 5b63 43bb eef0 bbbe
000003e0: ffaf 2dbe ad85 45be d901 cbbb 1a38 afbe
000003f0: 8e17 51bd 485b 9c3d 13b5 c5bd 5e2a cabe
0.1649778 0.023523165 -0.056763515 -0.4863419 -0.16863243 -0.05943412 0.17265429 0.11167653
-0.49452397 -0.26423326 -0.27836585 -0.32246965 -0.55466354 -0.029784428 0.034580506 -0.32812533
0.13999656 -0.28110772 -0.302536 -0.027098807 0.17821208 -0.040477954 0.16707829 0.14131983
-0.17259394 -0.084626794 -0.02002082 -0.19520171 0.12877356 0.117584154 -0.011541613 0.15396105
-0.1517082 0.11916527 0.07465087 -0.54397047 0.18757966 -0.3620273 0.022268312 -0.62537175
0.08149464 -0.2829927 -0.03134897 0.21570633 0.10745281 -0.056349967 -0.49867836 -0.2216288
0.030488595 0.11235435 0.1260882 -0.39508078 -0.532111 0.30506212 -0.49794436 -0.10793487
-0.12740584 0.039500386 -0.6352645 -0.027368203 0.18301573 -0.21553333 0.020107435 -0.17132844
-0.06878277 0.07724575 -0.19021945 -0.15031457 -0.09160069 -0.019476736 0.21374619 0.15759738
-0.5230067 -0.043583486 -0.259711 0.1298403 0.2512748 0.03310051 -0.21758437 0.09817739
-0.30897018 0.032884434 -0.079751976 0.38868165 -0.20310427 -0.4762016 -0.326637 0.23004395
0.26513562 -0.22005174 -0.05518507 -0.16188702 0.06890609 -0.06005693 -0.6738446 -0.06878218
-0.008019109 0.1337159 -0.10371794 0.03161257 -0.15978874 -0.2511308 -0.2001788 -0.47786984
0.2534029 -0.09542075 0.19171003 -0.38525 -0.083909325 -0.42259112 -0.03244424 -0.008074922
0.06896023 0.09112647 0.1474953 0.17672864 0.28040963 0.092835434 0.15318193 -0.07939856
-0.19299501 0.12707298 0.007962622 -0.0813431 0.06548365 0.062488057 -0.120563604 -0.13901052
0.07559495 0.13686377 -0.27881765 -0.49848256 -0.067058176 -0.02785537 0.09795381 -0.10363203
-0.1966583 0.10554443 -0.9396089 -0.3284088 -0.058341432 -0.16965586 0.099017404 0.01944822
-0.68838704 0.24303529 0.10972288 -0.11849173 -0.0061326753 -0.42338234 -0.29198617 -0.066056065
0.04386536 -0.01108541 -0.50867414 -0.34643808 0.22718942 0.2573224 -0.19382451 -0.44897574
-0.10708211 0.26443753 -0.12733428 0.18705198 -0.59810007 0.22817048 -0.5703573 -0.3088671
0.23196816 0.12016477 0.21110906 -0.08413048 -0.07044669 -0.15279503 -0.14025137 -0.3944343
-0.013411374 -0.18733457 0.11487072 -0.06006936 0.09363248 -0.0653287 0.0036318926 0.2021434
-0.061968222 0.25426084 -0.28919268 0.0783983 0.08527878 -0.06570218 -0.043746278 0.06147473
-0.23144916 0.0706063 -0.0929779 -0.08955161 -0.25844318 -0.40018994 0.26033196 -0.038098313
0.26891378 -0.36900038 -0.46286058 -0.5147634 0.020278642 0.08822448 -0.05769426 -0.38826966
0.12415372 -0.053589456 -0.07962273 -0.19692217 0.12086886 0.20736405 0.030310886 -0.08711966
-0.2800534 -0.41037187 0.07202705 -0.017251603 -0.09535771 -0.034872755 0.2502992 -0.35930935
0.0056234524 0.14830115 -0.3551001 0.07918194 -0.036665585 -0.035970747 0.005387986 -0.23117344
-0.072656415 0.24401279 0.18461971 0.0715987 -0.041404903 -0.034364864 0.09801797 -0.040267285
-0.19763774 -0.21325804 0.0861278 0.103794895 0.2822954 -0.2678025 -0.002981386 -0.36707252
-0.16961668 -0.19289275 -0.0061952886 -0.3422249 -0.051047854 0.07634598 -0.09653678 -0.3948545

fc3.bias f4 [10]
00000000: cc91 85be c889 aabe 5a53 49be 9ee2 783e
00000010: 6969 bc3e 12d7 8ebd 79d7 783d f356 84be
00000020: 4703 b53d 33d9 a73d
-0.26087797 -0.33308244 -0.19660702 0.24305198 0.36799172 -0.06974615 0.060752366 -0.25847587
0.08838516 0.08195724
