pytorch_iris_model.pt (torch_old, 1640 bytes, 6 tensors)

fc1.weight f4 [8, 4]
0.12120567 -0.43858 -0.46194842 -0.04376641 -0.3870318 0.07934177 0.14807653 -0.4770878
0.37189603 0.08944914 0.5770552 -0.04676038 0.76362246 0.6491989 -0.44091827 -1.3608226
0.35091677 -0.64580727 0.817564 0.9494975 0.47227523 0.94463146 -0.74885505 -1.1533582
0.16464484 -0.111353755 -0.42134798 -0.3553493 -0.31912696 0.14395738 -0.3496034 0.22803837
00000000: ae3a f83d 8f8d e0be 8184 ecbe 6844 33bd
00000010: 0829 c6be f07d a23d 60a1 173e da44 f4be
00000020: 2869 be3e 1c31 b73d e4b9 133f d087 3fbd
00000030: c37c 433f e631 263f 0ac0 e1be 6f2f aebf
00000040: 5dab b33e a053 25bf e04b 513f 4512 733f
00000050: 0fce f13e 5ed3 713f f7b4 3fbf 3ea1 93bf
00000060: a898 283e 700d e4bd ecba d7be 58f0 b5be
00000070: 9c64 a3be 9069 133e 38ff b2be e482 693e

fc1.bias f4 [8]
0.18593244 -0.20286602 0.67045474 0.7743829 -0.16371413 0.704043 -0.31223232 0.3780589
00000000: 1365 3e3e 1cbc 4fbe eca2 2b3f f53d 463f
00000010: ada4 27be 293c 343f eadc 9fbe f090 c13e

fc2.weight f4 [9, 8]
-0.2174119 0.08211541 0.10380886 -0.3531913 -0.41831264 0.10017468 -0.3494075 -0.263886
0.17289217 -0.11852983 0.8347496 -0.09406975 0.568205 -0.67156416 0.06991243 -0.32654905
-0.3545381 -0.2716259 0.13487718 -0.56684 0.64319026 -0.77736634 0.30476496 -0.21013083
-0.07368563 -0.060686797 0.17709716 -0.04176576 -0.13243024 -0.118443266 -0.30017546 -0.11276427
0.12669095 -0.19118746 0.11750729 -0.73097956 0.8054973 -0.30956277 -0.20340693 0.011390448
-0.019687474 0.06268561 -0.22976097 -0.22057456 -0.051930577 -0.2718181 0.03937459 -0.1807519
-0.2571917 -0.017445713 0.31905764 0.07619578 0.79258215 -0.57772875 -0.11047746 -0.062431544
-0.12986192 -0.34292972 0.6268462 0.516198 -0.18591216 0.91573626 -0.35234165 0.31245807
-0.337548 -0.20817648 0.12272372 -0.16028081 -0.17695963 -0.3074022 0.10800251 0.2850211
00000000: 3aa1 5ebe 202c a83d bd99 d43d 7dd5 b4be
00000010: 132d d6be 6228 cd3d 8ae5 b2be 111c 87be
00000020: a50a 313e c4bf f2bd 26b2 553f a4a7 c0bd
00000030: e275 113f a1eb 2bbf 402e 8f3d 7031 a7be
00000040: 0586 b5be 8d12 8bbe 3e1d 0a3e 6d1c 11bf
00000050: 1ea8 243f 7b01 47bf 270a 9c3e 892c 57be
00000060: 7ee8 96bd b892 78bd f558 353e 9312 2bbd
00000070: cb9b 07be 6292 f2bd 99b0 99be f4f0 e6bd
00000080: 46bb 013e a5c6 43be a9a7 f03d 7a21 3bbf
00000090: 1235 4e3f 037f 9ebe e849 50be 009f 3a3c
000000a0: a047 a1bc 5061 803d 7646 6bbe 4cde 61be
000000b0: 28b5 54bd be2b 8bbe 4047 213d 0717 39be
000000c0: a1ae 83be 50ea 8ebc 865b a33e 880c 9c3d
000000d0: aae6 4a3f 08e6 13bf 0242 e2bd 38b8 7fbd
000000e0: 86fa 04be 7c94 afbe fe78 203f 8d25 043f
000000f0: c25f 3ebe b16d 6a3f 2066 b4be 81fa 9f3e
00000100: 17d3 acbe 372c 55be 9356 fb3d a720 24be
00000110: e834 35be d263 9dbe 6c30 dd3d 49ee 913e

fc2.bias f4 [9]
0.018072093 0.51010686 -0.67532784 -0.4434597 -0.568447 -0.035856277 0.016115425 0.47855932
-0.02867499
00000000: ed0b 943c 5d96 023f 49e2 2cbf 260d e3be
00000010: be85 11bf 08de 12bd 7f04 843c ba05 f53e
00000020: d0e7 eabc

out.weight f4 [3, 9]
-0.13945545 -0.52687895 -0.15688947 -0.037399806 -0.7365864 0.22666267 -0.54208416 0.6343615
0.29845372 0.100059845 0.5085294 -0.95211345 -0.13457781 -0.5925708 0.27184823 0.3771742
0.09059491 0.2062389 -0.19183882 0.2497962 0.63167405 -0.037280552 0.69542104 -0.32192153
0.7714689 -1.0043454 -0.088609256
00000000: 69cd 0ebe 8ae1 06bf a2a7 20be 8a30 19bd
00000010: ed90 3cbf 421a 683e 07c6 0abf 8465 223f
00000020: edce 983e 2dec cc3d fc2e 023f b5bd 73bf
00000030: c4ce 09be b8b2 17bf b12f 8b3e fa1c c13e
00000040: d389 b93d 4a30 533e 6571 44be 93ca 7f3e
00000050: 64b5 213f 7eb3 18bd 1d07 323f e6d2 a4be
00000060: fc7e 453f 648e 80bf c578 b5bd

out.bias f4 [3]
0.571814 -0.2766828 -0.60401994
00000000: 6762 123f 5ea9 8dbe 0da1 1abf
