TaxiFareRegrModel.pt (torch_old, 109730 bytes, 20 tensors)

embeds.0.weight f4 [24, 12]
000000 99 95 e3 3e db 78 3a be 5f 40 ef be a3 81 18 3f
       0.4445007 -0.18210165 -0.467288 0.5957281
000010 0d 36 2d 3f 53 81 10 bf 9a 0e ac 3f 6c e1 3a 3e
       0.676606 -0.56447333 1.3441956 0.18250054
000020 84 63 8c bf d5 09 91 3f 02 ba c6 3e 36 6c a6 be
       -1.096787 1.1331125 0.38813788 -0.32504433
000030 27 7e 0c 3e d6 44 aa bf 2b be 7c 3e 7a 29 f5 3e
       0.13719998 -1.3302257 0.24681918 0.47883207
000040 46 0e ec be 9f 9e a8 bf 79 35 88 3f e3 68 f9 be
       -0.4610464 -1.3173407 1.0641319 -0.48712835
000050 90 73 38 3e 33 7e 95 3f 0b f7 21 bf 2f 85 de 3e
       0.18012834 1.1679138 -0.6326758 0.43460986
000060 8e 24 90 3e ed 96 91 bf 65 28 c5 be a0 62 63 3e
       0.2815289 -1.1374184 -0.3850738 0.22205591
000070 9f 24 14 be da c2 11 bf e9 68 a8 bf 4d ba 83 bf
       -0.14467095 -0.56937945 -1.3157016 -1.029123
000080 bb e8 69 bf 66 f2 c8 3e 63 c6 54 bf 8a fc 28 3f
       -0.91370744 0.39247435 -0.83115214 0.66010344
000090 98 1c 9a bf b0 fe 5a be e6 26 88 bf df 9c a9 3f
       -1.2039976 -0.21386218 -1.0636871 1.3250998
0000a0 58 6d 89 be 89 43 34 3e 84 4e e3 3e 79 6e 4c 3f
       -0.26841235 0.17603888 0.4439584 0.7985607
0000b0 d2 1e e7 3e 06 75 22 3e 6d 36 ea 3d 48 08 68 be
       0.45140702 0.15864953 0.11436162 -0.22659409
0000c0 3e ce 7f bf 34 7e 5e bf 5c 92 b3 3f e8 fe ad bf
       -0.99924076 -0.8691132 1.402904 -1.3593416
0000d0 95 d1 96 be 6c 13 c0 bf 75 07 ff be 8d 9f 95 3f
       -0.29456773 -1.5005927 -0.49810377 1.1689316
0000e0 a6 c7 4d 3e 9d 89 23 bf 1d 14 4a 3f c2 58 f5 3e
       0.20095691 -0.63881856 0.7893694 0.4791928
0000f0 8a 54 9a 3e 6d e1 a0 be 3d 43 35 3f 02 37 27 c0
       0.30142623 -0.31421986 0.7080572 -2.6127324
000100 8c 2c 52 be 31 af 12 c0 80 a8 e1 bf 68 20 9a 3c
       -0.20524806 -2.2919428 -1.7629547 0.01881428
000110 85 20 80 bf 12 e3 2c 3f ae af 5a 3e df 16 52 3f
       -1.0009924 0.6753398 0.21356079 0.8206615
000120 62 ff 37 3e 3b fa 8d 3f 4d fa 15 3f 5e d8 22 bf
       0.17968515 1.1091989 0.58585054 -0.636114
000130 8a 35 25 bf f3 07 10 bf 57 1f 1c 3f 09 51 23 be
       -0.6453482 -0.5626213 0.6098532 -0.15948881
000140 07 a8 c4 3f ed 6a a0 bf 54 b1 32 be 49 ac 9b 3f
       1.5363778 -1.2532631 -0.17450458 1.2161952
000150 51 30 de 3f ae e4 14 be 64 e0 55 3d 21 6a 8f bf
       1.7358495 -0.1454036 0.05221595 -1.1204263
000160 d1 09 32 bf 5b 57 34 3c a3 0b 1d 3f 39 5b 9e bf
       -0.6954623 0.011007155 0.6134588 -1.2371589
000170 8f 00 19 bf b2 80 77 bf e7 33 0a bf 6a cf 88 bf
       -0.5976648 -0.9668075 -0.53985447 -1.0688298
000180 a2 b5 30 bf 69 b3 65 bf 7b b9 28 40 45 9a b2 3f
       -0.6902715 -0.89726883 2.6363208 1.3953329
000190 49 45 85 bc 92 26 23 bf 1d c3 02 bf 8c 29 c7 3d
       -0.01626839 -0.6373073 -0.5107897 0.09724721
0001a0 ca 9e 08 3f 48 c0 a3 3f ae 1b 14 3f 41 8a 05 bf
       0.5336729 1.2793055 0.57854736 -0.52164084
0001b0 dd b6 88 3f 9a d8 10 3d 50 f9 96 3f 29 79 33 bd
       1.0680805 0.035362817 1.1794834 -0.04381672
0001c0 07 e4 9b bf d3 6f 1b 3f 07 dc 85 be bc a5 7d bf
       -1.2178963 0.60717505 -0.2614443 -0.99081016
0001d0 c6 c7 68 3f 21 da be 3f 04 b3 a3 bf 35 a7 36 3e
       0.9092983 1.4910318 -1.2789006 0.17837222
0001e0 f1 f3 84 be 01 50 c6 3f ca 60 aa be 1e b0 9a be
       -0.25967363 1.5493165 -0.3327697 -0.30212492
0001f0 08 a7 16 3f cc 3e 54 bf 30 e8 84 bf ee c2 2e 3f
       0.5884862 -0.8290832 -1.0383358 0.6826619
000200 09 82 e1 3e 97 f0 10 bf da 6a e5 bf c7 b9 1b bf
       0.4404452 -0.5661711 -1.7923234 -0.6083035
000210 62 b6 c1 3e aa 74 64 3f 99 2c 3c bf 8d b8 e7 3f
       0.3783446 0.89240515 -0.7350555 1.8103195
000220 86 87 3b 3f 99 cc 6a 3f b2 34 5b 3f 0d ae 72 bf
       0.7325367 0.9171844 0.8562728 -0.9479683
000230 3a f5 9f bf b8 fa f9 bf 6e 39 eb bc 18 2d 28 bf
       -1.2496712 -1.9529638 -0.028713908 -0.6569381
000240 49 b0 b4 bf 9b a9 c1 bd be 36 70 3f bc b4 66 3f
       -1.4116298 -0.09456178 0.9383353 0.9011953
000250 13 e6 b3 bb 3d aa 87 3f de 63 81 bf 45 47 10 40
       -0.0054900735 1.0598828 -1.0108602 2.25435
000260 c0 76 37 be 76 4c bd 3e 5a 6d a6 3f 4a e8 b3 bf
       -0.17916393 0.36972398 1.3002121 -1.4055264
000270 8a e9 e0 3f 3a 88 a2 3e 80 61 34 bf c4 eb 86 bf
       1.757127 0.31744558 -0.70461273 -1.05407
000280 1e 83 61 bf 11 a2 96 bd bd 06 10 3e dc 9a b8 3e
       -0.88090694 -0.073551305 0.1406507 0.36055648
000290 21 02 43 be 8d e3 99 bd 53 53 d4 bf fc 05 d0 bf
       -0.19043781 -0.07514105 -1.6587929 -1.6251826
0002a0 8e f3 fb 3d 56 cf b0 bf dc d0 84 3f 14 89 7b 3f
       0.12302314 -1.3813274 1.0376239 0.9825604
0002b0 fe 59 d9 bf 47 41 84 3d 65 45 ad 3f ff 10 9c be
       -1.6980588 0.06457763 1.3536803 -0.30481717
0002c0 7f 02 87 bf 34 cb d6 3e 99 c7 8c 3f e6 ad 4f bf
       -1.0547637 0.41951907 1.0998412 -0.8112472
0002d0 bc 06 92 bd bc 35 8d be 25 93 80 bd 37 e2 08 3e
       -0.07130191 -0.2758006 -0.062780656 0.13367544
0002e0 14 d8 64 3f b9 c8 82 3f b8 ac 49 be ea 21 f7 bf
       0.8939221 1.0217506 -0.19694793 -1.9307225
0002f0 4f 2b 8b 3e 1d cb 4e bf 50 9f cd bf f7 d2 56 bf
       0.2718148 -0.80778676 -1.6064243 -0.83915657
000300 10 7d b3 bf 94 c9 af bf 3e cd fd be 17 5e b2 bf
       -1.4022541 -1.3733392 -0.4957065 -1.3934964
000310 cc 0b 77 bf 93 57 83 bc 8e 58 97 3f 18 f9 e0 3f
       -0.96502376 -0.01603297 1.18239 1.7576017
000320 3e b6 fc bd 48 66 87 3e 09 88 b0 be ea 61 b0 be
       -0.123394474 0.26445222 -0.34478787 -0.34449703
000330 1d 2f 00 bf c7 ea 06 c0 51 47 78 bf 79 3c 9c bf
       -0.5007189 -2.1080797 -0.9698382 -1.2205955
000340 f3 d4 cc 3d 2d ba c3 3e cd 1f c6 bf 3b 0f 8e be
       0.10001554 0.38227978 -1.5478455 -0.27745995
000350 46 62 40 bf b4 fe cf be 39 a8 a1 be 9b 13 a4 3f
       -0.75149953 -0.4062401 -0.31573656 1.2818483
000360 1f d0 d7 bf d5 f3 31 bf d6 c1 17 bf 60 c7 75 bf
       -1.6860389 -0.69512683 -0.59280145 -0.9600735
000370 4c bd 4a 3f aa 27 c2 be cb 19 f6 3e 47 b8 85 bc
       0.79195094 -0.37920886 0.48066553 -0.016323222
000380 f6 2b 7d bf 9d 5c 01 3e ab f2 86 bf fb be 6b bf
       -0.98895204 0.12632985 -1.0542806 -0.9208829
000390 73 d8 c1 bf 91 af 8a 3e f7 2d 65 bf a5 d6 8f be
       -1.514418 0.27087072 -0.8952326 -0.28093448
0003a0 43 23 ae 3e b3 50 fc 3d ca 40 fa 3f 75 d7 a0 be
       0.34011278 0.1232008 1.9551022 -0.3141438
0003b0 73 3b a6 3f f1 38 ce be b6 47 04 bd 75 77 9b 3f
       1.2986892 -0.40277818 -0.03229495 1.214583
0003c0 5f 97 ec bf e5 db 25 bf 40 25 a8 bd 43 61 14 bf
       -1.8483695 -0.6478866 -0.0821023 -0.5796091
0003d0 a7 1f 43 be d5 b6 6a bd f3 94 07 bf de fb 23 c0
       -0.19055043 -0.05730327 -0.52961653 -2.5622478
0003e0 0d 14 f5 3e 6f 3e 09 3f d2 76 4a bf 38 50 78 3f
       0.4786686 0.5361089 -0.79087555 0.96997404
0003f0 f2 59 9b bf 45 a1 a8 be e9 00 92 bf 3b 3d b6 be
       -1.2136824 -0.3293554 -1.1406528 -0.3559359

embeds.1.weight f4 [2, 1]
000000 32 f9 14 be e7 04 71 3e
       -0.14548185 0.23537026

embeds.2.weight f4 [7, 4]
000000 be 9b a1 3e b1 1b a5 3e 40 56 55 3f 7d 31 e3 bf
       0.31564134 0.3224769 0.8333473 -1.7749478
000010 f9 9a e8 3e ba 3f 35 bf d5 6c 8f 3f 30 f2 d6 3e
       0.45430735 -0.70800364 1.1205088 0.4198165
000020 39 e3 c2 3f 4d 61 ac bf 23 4b ba bf 4d 10 d6 3e
       1.5225593 -1.3467194 -1.455418 0.41809312
000030 53 2b 20 3f 01 13 b7 be 23 e2 fe bf c4 9c d0 bf
       0.6256611 -0.35756686 -1.9912761 -1.6297841
000040 7e de 15 bf c3 e3 b1 be c5 3a c8 3f af df 0c 3f
       -0.5854262 -0.3474408 1.5642935 0.55028814
000050 cd 47 c7 3f a3 3a 04 bf d2 ea 9c bf 5a ed bc be
       1.5568787 -0.5165197 -1.2259161 -0.36899835
000060 e3 b7 32 3f dd f7 40 bf 99 79 0d bf 59 6b 12 3e
       0.6981184 -0.7537821 -0.5526367 0.14298762

bn_cont.weight f4 [6]
000000 b5 c8 f2 3e 76 f8 26 3f 8a 2b 23 3f 9f b5 e0 3e
       0.47418752 0.6522287 0.6373831 0.43888566
000010 0d 2a c7 3e 36 9b 3f 3f
       0.3889927 0.7484621

bn_cont.bias f4 [6]
000000 83 70 92 3d 86 08 be bb 0c eb 24 3d 89 c1 c5 bd
       0.07150366 -0.005799356 0.04026322 -0.096560545
000010 a6 83 db bd 19 4a 16 bc
       -0.10718469 -0.00917294

bn_cont.running_mean f4 [6]
000000 76 01 23 42 ea f3 93 c2 ef 01 23 42 ed f2 93 c2
       40.751427 -73.976395 40.75189 -73.974464
000010 7d 95 ac 3f ca 00 54 40
       1.348312 3.3125482

bn_cont.running_var f4 [6]
000000 1c f0 2d 3a 90 db 84 3a 54 4f 70 3a ef 51 8a 3a
       0.00066352054 0.0010136236 0.0009167094 0.0010552983
000010 19 a5 13 3f ae 3e 31 41
       0.57673794 11.077803

layers.0.weight f4 [200, 23]
000000 73 e0 aa 3c be 5b 00 bd 23 77 6e 3d 6d 15 4a bd
       0.020858979 -0.031337492 0.058219086 -0.04933684
000010 52 0f 86 bd 3c 15 a3 3d af dc 2c 3d e9 07 b8 bc
       -0.06545891 0.079630345 0.042202648 -0.02246471
000020 c9 9e fe bc 28 ab 80 3c 44 70 3a bd 00 aa 71 3d
       -0.031081574 0.015706614 -0.04551722 0.059000015
000030 b2 fd 95 bc af 24 b5 bc f2 31 ad bd d7 cf f1 3c
       -0.018309448 -0.022112219 -0.08456792 0.029518051
000040 45 2d 0f bd 36 0d 26 be f6 24 20 3e 9d fe 0d be
       -0.03495528 -0.16215977 0.156391 -0.13866659
000050 50 99 76 3e 94 a9 80 3d f8 17 58 3e 03 b7 14 3c
       0.24081922 0.062823445 0.21102893 0.0090768365
000060 30 f4 74 bb c5 e4 e8 3b 76 73 3f 3b e7 4c 66 bc
       -0.0037376992 0.0071073496 0.0029213107 -0.014056421
000070 66 38 21 3b 07 a3 88 bc 0e 4b d0 39 67 28 04 3c
       0.0024600266 -0.0166793 0.00039728772 0.008066273
000080 a1 33 fb 3b 5d 0f 21 ba 98 ab 32 bc 11 5f d8 3c
       0.0076660668 -0.0006143952 -0.010905169 0.026412519
000090 0b 9e f4 3b 72 8a 30 3c cf af 68 39 bf 2b cd 3a
       0.0074651293 0.010775195 0.00022190738 0.0015653296
0000a0 79 54 e0 bd 04 72 98 3d 41 a2 a9 bc 2e 86 98 bb
       -0.10953612 0.07443622 -0.020707252 -0.0046546673
0000b0 97 09 fc 3b d5 45 68 3e 06 05 bf 3b b3 84 a7 bb
       0.007691573 0.22682889 0.0058294563 -0.0051122545
0000c0 26 88 40 bb 4f 9c 2b 3c 64 3b c4 ba fa f8 ef bb
       -0.0029378026 0.010474279 -0.0014971313 -0.0073233815
0000d0 3e 40 f1 3b d0 36 7a 3a 35 31 70 bc d0 c3 84 bb
       0.0073623946 0.0009544911 -0.014660169 -0.004051663
0000e0 ee 9e 9d 3c 28 f0 9d 3b 1e 72 d6 bc fd da a3 bb
       0.019240823 0.0048198886 -0.026177462 -0.0050004707
0000f0 4d 81 ee 3a 65 09 09 3b 5c 58 e9 3b cc 6e 7c be
       0.0018196494 0.002091014 0.007121129 -0.2465164
000100 20 79 02 3e 3e ba 0e be da 9c 9e 3e 33 d8 81 bd
       0.12741518 -0.13938233 0.30979043 -0.06340065
000110 a3 3a 8d be e5 49 ce bd 63 f2 8d 3c 47 10 27 bd
       -0.275838 -0.10072688 0.017327493 -0.040787008
000120 53 cb b8 bd 10 a3 64 bd cf 0e 00 3e 7d 20 0b bd
       -0.09023156 -0.05581957 0.12505649 -0.03396653
000130 4d 77 96 bd 8f 18 93 3d 05 47 87 bd 0c 19 91 3d
       -0.073469736 0.071824186 -0.06605343 0.070848554
000140 5a ec 1a bc f0 2a 66 39 06 c7 42 bc d9 9e c0 bd
       -0.009455765 0.00021950505 -0.011888271 -0.09405298
000150 99 4a 32 3c 4b 16 cc bd a4 e0 ab 3d 41 aa cb 3c
       0.010882043 -0.099651895 0.08392456 0.024861457
000160 65 f5 33 bc e2 55 f5 3a 87 05 91 be 73 67 8f be
       -0.0109838 0.0018717612 -0.2832453 -0.28008613
000170 40 7e 50 bd a7 41 6e 3d e8 d1 41 3d b3 1e 11 3d
       -0.05090165 0.05816808 0.047319323 0.035429668
000180 f5 5a 09 bd 3b cd 4d 3d 90 45 90 bb 43 f9 8f 3c
       -0.03353401 0.05024455 -0.0044028237 0.017574912
000190 da 42 c5 bd c0 cb 3a 3c dc 15 92 bd 13 ad a8 3d
       -0.096318915 0.011401117 -0.071330756 0.08236136
0001a0 2a 0b 59 3c b4 c7 8a 3b da c8 82 39 17 8b 0d 3c
       0.013247291 0.0042352322 0.00024945178 0.008639119
0001b0 c8 d7 c7 3c 1d 00 35 3c 07 5c 4b be 09 ad 89 3e
       0.024394885 0.01104739 -0.19859324 0.26889828
0001c0 e7 fb 54 be f7 0d 15 3d 50 97 2d be f0 42 10 3d
       -0.20799218 0.03639027 -0.16952252 0.035220087
0001d0 7d 9f 68 bd 6b 90 1c 3d 9d bd fd bd e0 fc 35 bd
       -0.056792725 0.038223665 -0.123896815 -0.044430614
0001e0 69 c3 3b bd 2b 0b c9 bd c1 d2 85 3d 2d 0c 15 bb
       -0.045840655 -0.09816583 0.06534339 -0.0022742853
0001f0 1d 32 e5 bd 84 be 31 3e 68 c7 0b be 50 54 1d be
       -0.11191199 0.17357832 -0.13650286 -0.15364194
000200 ce c6 22 bd 5e 60 e7 3d 76 a1 dd bd 6f 28 1f 3d
       -0.039740376 0.112976775 -0.10821812 0.03885692
000210 9f b3 bb bd 35 fd 2e 3e 5c 09 e7 bb 83 0e 80 bd
       -0.091651194 0.17088778 -0.0070506763 -0.06252768
000220 c0 5b d0 3c df 72 11 3e 9d 27 4d bd 3f f6 06 3e
       0.025434375 0.14203976 -0.050086606 0.13179873
000230 da 48 a9 3c 8c 6a 0a 3c 4a 60 ac ba 7c d2 b2 bd
       0.020664621 0.008448254 -0.0013151255 -0.08731553
000240 d7 13 01 be 71 36 52 bd 77 98 14 be 67 9d a2 bd
       -0.12605225 -0.05132145 -0.14511286 -0.07940178
000250 f7 7b 7e 3d 8c 71 58 bb 09 52 9a bd 3f 2c 6b be
       0.06212994 -0.0033026664 -0.07535178 -0.22966097
000260 7d f5 24 3e c3 5b 74 be f1 2a bd bd 7b b3 86 3e
       0.16109271 -0.2386313 -0.09236706 0.26308808
000270 1f ca 87 bd fb ad 20 3e 2f 97 04 be 18 b1 cc 3c
       -0.066303484 0.15691368 -0.12948297 0.024986789
000280 05 54 d4 bd 43 24 d1 3c dc 04 b7 bd dc 87 0d 3e
       -0.10367588 0.025529986 -0.08936474 0.13821357
000290 99 41 bf bd 84 53 16 3e 02 b4 c5 3d c4 60 04 be
       -0.09338684 0.14680296 0.096534744 -0.12927538
0002a0 ba 53 c8 3c c9 17 00 3e 1a 70 8e bd f0 c3 3f be
       0.024453986 0.12509073 -0.069549754 -0.18727088
0002b0 5a 42 0b 3e 13 fa 2d be 13 dc 6f bb 79 b8 f1 bd
       0.1359953 -0.16989927 -0.003659968 -0.118027635
0002c0 68 1f b9 bd 98 96 b0 bd 1e fa a2 3b 38 60 f4 3d
       -0.090391934 -0.086224735 0.004973664 0.11932415
0002d0 58 83 7a bd c6 c3 24 be 52 ca a4 3d ac e0 43 be
       -0.061160415 -0.16090307 0.08046402 -0.19128674
0002e0 f7 79 02 bc 19 bb a1 3c 07 5f 94 3c d2 ec a1 bc
       -0.007963649 0.019742535 0.018111719 -0.019766245
0002f0 2b 8d 65 bc a5 f3 9d 3c b8 f1 65 3c 0c bc ed ba
       -0.014010708 0.019281218 0.014034681 -0.0018137707
000300 d1 6b d7 bc e2 1d 93 3c c4 e9 4c bc 0c 01 48 bc
       -0.026296528 0.017958585 -0.012506906 -0.012207281
000310 2b 35 86 3d c9 a1 46 3c cd ad 67 bd c5 f4 22 3c
       0.0655311 0.0121235335 -0.056562234 0.009946053
000320 f6 81 c3 bc a8 40 99 3d 67 b8 d2 bc cb 6f ac 3b
       -0.023865681 0.07483035 -0.025722696 0.00526235
000330 32 85 8e bd f2 44 d3 bc f5 e9 9e 3e 66 42 bc 3c
       -0.06958999 -0.025789712 0.3103787 0.02298088
000340 15 1b bc 3b e2 38 c3 bd 48 95 f1 bc fb 81 a6 bc
       0.005740533 -0.09532334 -0.029490128 -0.020325651
000350 e4 38 13 bb 73 0f 0a 3d 7e e6 b2 bc e3 38 41 bd
       -0.002246433 0.03370614 -0.021838423 -0.047173392
000360 96 a0 b2 3d fe 16 ee 3a df 5c 0b 3d 52 76 4d be
       0.087220356 0.0018164811 0.034024116 -0.20064667
000370 a2 b7 2d 3d 38 b9 0e 3d 87 48 c0 3c fe ae d1 3c
       0.042411454 0.034844607 0.023472084 0.025596138
000380 fe 9f 8a 3e c9 42 19 be be 12 74 3e 6e 51 66 be
       0.2707519 -0.14966883 0.23835275 -0.22492
000390 eb dd 14 3e 20 d2 5a be e8 67 12 bb dd 79 77 3c
       0.1453778 -0.21369219 -0.0022339765 0.015104738
0003a0 24 d2 0d 3d 47 41 e1 bc 40 ea be 3c bf a4 17 3c
       0.034624234 -0.027496947 0.023305058 0.009255587
0003b0 7e ed 18 bb 07 b7 20 3c 47 f9 17 3c c1 4a 00 bc
       -0.0023334916 0.009809262 0.009275741 -0.007830323
0003c0 f4 ce c8 3c 91 1f 9f bc 62 b9 41 3e 59 ba 0f 3c
       0.024512745 -0.019424232 0.18918374 0.008772456
0003d0 68 2b 12 ba a9 36 03 bb aa e4 4a 3c aa 35 97 bd
       -0.0005575926 -0.0020021594 0.012383619 -0.073832825
0003e0 67 b5 aa 3c 25 a4 09 3e ee 3f e6 3b c6 c7 c4 3d
       0.020838453 0.13441522 0.007026664 0.09608416
0003f0 80 f1 a4 be 7a 80 10 bd f3 7e ab 3a d8 20 9a bc
       -0.322155 -0.035278775 0.0013084098 -0.01881449

layers.0.bias f4 [200]
000000 c8 91 71 bb de e5 28 3e f9 fd 62 3d f2 43 27 3e
       -0.0036860574 0.16493937 0.05541799 0.16334513
000010 08 95 83 3e 36 82 67 3d 56 75 fe 3d dd ef 27 bd
       0.2569964 0.056520663 0.12424724 -0.041000236
000020 df 45 aa 3d df 24 64 3e a1 d2 21 3d 32 ea 8f 3e
       0.08314108 0.2227969 0.039507512 0.28108364
000030 f1 57 43 bd 34 5c 0d 3e 54 2d fd 3d 2d 0d 39 3d
       -0.04769129 0.13804704 0.12362161 0.04517858
000040 3d 41 21 3e b6 cd 07 bc c4 f3 1d bd 15 1f 6d 3e
       0.15747543 -0.008288791 -0.03856255 0.23156388
000050 d6 67 0a 3e 47 1a 52 be 08 e6 34 bd a5 2e 69 3e
       0.13516173 -0.20517837 -0.044164687 0.227717
000060 e3 d4 98 bc a2 ab 23 3e 59 34 f6 3d 60 12 12 3e
       -0.0186562 0.15983441 0.12021703 0.14264822
000070 72 f2 b3 3d f0 c0 b2 3e 23 f1 4b 3d ae 2d a2 bc
       0.08786477 0.34912825 0.049790513 -0.019797172
000080 d7 e8 e0 3c 9a d4 b0 3d ac c7 aa 3c a9 99 25 3e
       0.027454777 0.086343005 0.020847164 0.16171898
000090 ad 03 a1 bd f1 d3 0c 3e 2b 3e 8b 3e 37 46 85 3e
       -0.07862029 0.13752724 0.27195868 0.26030132
0000a0 fb 86 1f bc 9a 1d c0 bc f9 27 89 3e e4 cf 8c 3e
       -0.009736772 -0.023451615 0.2678831 0.27502358
0000b0 1a 9d 5d bb bc cc 2a be fb 95 a3 3d 8c c3 3f 3d
       -0.0033815564 -0.16679662 0.07987591 0.046817347
0000c0 bf 5b 4d bd 21 48 f4 bd 56 8d 5b be b6 ac ed 3d
       -0.050136324 -0.1192782 -0.21440634 0.116052076
0000d0 17 17 29 3d 41 da 4e 3d 53 1c c1 3d 9e 3a e3 bd
       0.041281786 0.050501112 0.094292305 -0.11095165
0000e0 f4 8e 52 be 9d 01 78 3e 63 a7 ac 3d 57 ab 53 be
       -0.20562345 0.24219365 0.08430364 -0.2067083
0000f0 cb 53 eb 3d 72 eb 07 be ba 99 bb 3e 45 75 42 3c
       0.114905916 -0.13273409 0.36640722 0.01186878
000100 7b 65 83 3e e5 c8 0c 3c c8 af 40 3e 0a de 39 be
       0.2566336 0.008592819 0.18817055 -0.18151107
000110 0c 45 2f be 19 44 88 3e 53 7a 24 3e f8 9f d9 3d
       -0.17116183 0.26614454 0.16062288 0.10626215
000120 e5 17 31 3e d3 10 84 3e 0c b9 72 3e 3b d5 25 3e
       0.17294271 0.25794086 0.23703402 0.16194622
000130 17 96 f7 3a 7d 44 bf bc 12 98 7c 3e 87 cd e0 bd
       0.0018889335 -0.023348087 0.24667385 -0.10976701
000140 b9 4a 69 bd 8d 68 25 3e 8b d4 0c be d8 e6 9e 3e
       -0.056956027 0.16153164 -0.13752954 0.31035495
000150 81 6e 9f 3d 91 d8 e7 3d 7f b1 aa 3e c5 2a cc bd
       0.07784749 0.11320604 0.33338544 -0.09969095
000160 17 bd 0c 3e 1d cc be bd 8b a7 5e 3e 6e 1e d6 3c
       0.13744007 -0.09316275 0.217436 0.026137557
000170 ff 31 8f 3d d0 af 2d be e7 2d d3 3d 78 8d ea 3d
       0.06991958 -0.16961598 0.103114896 0.11452764
000180 13 e1 83 3e a7 d8 c1 3d 4e d5 29 bd 45 64 cc bd
       0.25757656 0.09465151 -0.04146319 -0.099800624
000190 13 22 52 3e 66 4e ba 3d cb 11 ef bd 29 f0 5e 3d
       0.20520811 0.090969846 -0.116733156 0.054428253
0001a0 50 92 ef bd d8 a9 41 3e d9 08 34 3e 0c 9e 29 3d
       -0.11697829 0.18912446 0.175815 0.04141049
0001b0 5b d2 59 3e e9 da ea 3c a8 2b 4b 3e 8e 94 43 3d
       0.2127165 0.028668838 0.19840872 0.047749095
0001c0 22 a3 07 3d bf 61 02 bd 3c d1 05 3e 37 fb b2 3d
       0.03311456 -0.0318315 0.13068098 0.08739322
0001d0 0e c1 6d bd 5d 12 1b 3e 36 e0 20 3d 5a 5a aa be
       -0.05804544 0.15143724 0.039276324 -0.33272058
0001e0 9f 41 db 3d c3 c1 1c 3e cb d6 28 3e 81 37 a9 3d
       0.107058756 0.15308289 0.16488187 0.0826254
0001f0 03 e3 4c 3e 78 43 98 3e 23 af 5d 3d 2b 66 ac 3c
       0.20008473 0.29738975 0.0541221 0.021044811
000200 87 64 a5 be d4 9b 70 3e 9e a1 5a 3e d2 d4 ee 3b
       -0.3230326 0.23496944 0.21350715 0.0072885538
000210 db f3 77 3e 50 d4 31 3d d6 8f 85 3e 0a d7 8e bc
       0.24214117 0.043415368 0.260863 -0.017436523
000220 15 cf a8 3d 0e 53 9b 3e 5a 9f 11 3d 28 13 7a 3d
       0.08242623 0.30336803 0.03555236 0.061053425
000230 12 ba 92 3e cd a7 1c 3e df a4 47 3d 3f a7 5c 3e
       0.28657585 0.15298386 0.048741218 0.21548174
000240 60 3e 25 3e 63 e3 a2 bd ba 1c fb 3c fd 7f ce bc
       0.16137075 -0.07953527 0.030653346 -0.025207514
000250 81 3c da 3c 5f ee 48 3e f1 86 10 3e 31 ff 8a 3d
       0.026640179 0.19622181 0.14113976 0.06786955
000260 27 e7 d3 bb c9 e2 04 3e 45 28 86 3e aa 5b 0c 3d
       -0.0064667645 0.12977137 0.26202598 0.034267105
000270 e2 13 86 bd 1f 4b 2e 3e e2 13 0f bd 77 d4 a4 bd
       -0.06546761 0.17020844 -0.03493107 -0.08048337
000280 b6 72 0a 3e 7f 06 8f 3c a7 fa cd 3d b7 ed b0 bd
       0.13520321 0.017459152 0.10057574 -0.086390905
000290 1d c7 d8 bd 3a a3 84 3d 28 26 61 3e 8a e0 23 be
       -0.10584853 0.064764455 0.21987212 -0.16003624
0002a0 45 09 d5 3d bd c7 04 be 0a fa db bd ca 96 fa 3d
       0.10402159 -0.12966819 -0.107410505 0.12235792
0002b0 49 a7 40 bd 58 1a 13 be f6 38 c6 3d cd 1d 9f bc
       -0.047034536 -0.14365518 0.09678833 -0.01942339
0002c0 26 00 90 3e 43 ba e6 ba 51 65 5d 3e cc 6f 04 bc
       0.28125113 -0.0017603118 0.2162068 -0.008083295
0002d0 dd e6 13 3d b1 42 58 3d a4 6d 25 3e fd f3 9d 3d
       0.03610884 0.052797977 0.16155106 0.07712553
0002e0 49 34 27 be 4a d1 b1 3d 2e ac 0e bd a6 aa f8 bd
       -0.16328539 0.08682497 -0.034832172 -0.121419236
0002f0 7e 9d b5 3e f1 f2 80 bc 86 83 9a bd bc f5 9b bc
       0.3547172 -0.015740843 -0.07544617 -0.019038074
000300 db e7 57 3e 0d e3 0b 3e 81 1b e4 3c f9 45 9f 3e
       0.2108454 0.13660832 0.027845146 0.31108072
000310 15 06 17 bc 00 1e 80 3e 0e af 21 3e 02 01 ee 3d
       -0.009217759 0.25022888 0.15789434 0.11621286

layers.2.weight f4 [200]
000000 b6 a9 4a 3e b7 e8 26 3f 5a 03 51 3f d3 c9 3b 3e
       0.19791302 0.65198845 0.8164574 0.18338709
000010 f3 cd d9 3e 3a 4d 03 3f 49 aa f6 3c 2a 25 2e 3f
       0.4253994 0.51289713 0.030110495 0.6802546
000020 28 c2 75 3e 06 75 d5 3e 87 06 f2 3d 35 7f 93 3e
       0.23999846 0.41690844 0.11817651 0.2880799
000030 29 9d cd 3d 78 2f 03 3f be c1 52 3f 67 af 53 3f
       0.100397415 0.51244307 0.8232688 0.8268952
000040 e7 27 02 3f 7b d2 94 3e a8 51 21 3f 82 fc 5b 3e
       0.50842136 0.29066834 0.6301522 0.21483043
000050 3d 8c 27 3f 6f 00 25 3f 46 f4 6c 3f a3 68 5d 3f
       0.6544836 0.64453787 0.9256023 0.8648779
000060 68 e6 30 3e 8f 45 5d 3e 9d 5b 39 3f 46 db cc 3e
       0.17275393 0.21608566 0.72405416 0.40011042
000070 9b b5 1b 3f 86 29 e2 3e 5b 9e f0 3d 48 a0 3f 3f
       0.6082398 0.44172305 0.11748954 0.74853945
000080 89 f0 0d 3e 18 28 3c 3f 95 ee 45 3f 5e 9f 57 3f
       0.13861288 0.7349868 0.7731717 0.8422755
000090 78 43 df 3e 88 72 19 3e 16 ac 8f 3e a5 34 35 3f
       0.43606162 0.14985096 0.2806098 0.70783454
0000a0 13 d1 75 3e 7d 18 05 3f 5a 0b 55 3f 7e 31 4f 3e
       0.24005537 0.5199049 0.83220446 0.20233724
0000b0 03 bd e1 3e 0a 23 1c 3f 81 ac fa 3e 4b ed 6e 3f
       0.44089517 0.60990965 0.48959735 0.9333083
0000c0 51 ef 3a 3f f8 02 f0 3e b9 d9 0f 3e 58 ff 70 3f
       0.7302142 0.46877265 0.14047898 0.94139624
0000d0 41 62 2d 3f cd ee d4 3e 64 33 fa 3d 0d b7 69 3f
       0.6772805 0.4158844 0.12216833 0.9129494
0000e0 85 80 30 3f c4 6c 63 3f 27 08 70 3f a5 cc 38 3f
       0.68946105 0.8883784 0.9376244 0.7218726
0000f0 d5 38 32 3f 9a 1d 2e 3f 31 27 7d 3e e8 60 bd 3e
       0.6961797 0.6801392 0.24721982 0.36987996
000100 eb 8d d4 3e 78 16 bf 3d 7f 50 88 3e c8 4e 28 3f
       0.41514525 0.093304574 0.26623914 0.6574521
000110 c4 0d 2b 3f 50 04 81 3e f9 b0 fd 3e f8 62 27 3f
       0.6681788 0.25198603 0.49549082 0.6538539
000120 b5 a0 13 3f 0f 76 26 3f ac 90 52 3e 29 1e 03 3f
       0.57667094 0.65023893 0.20563 0.51217896
000130 a8 a1 16 3d 7b ea d1 3e 71 bb 0d 3f 37 ec af 3e
       0.03677526 0.40999207 0.5536414 0.34359905
000140 c5 24 5b 3f 36 d4 48 3e 7e ae 49 3f 17 a8 4c 3e
       0.8560298 0.19612202 0.7878188 0.19985996
000150 b9 19 a0 3e fc ea 8b 3e ac ea 8d 3d 93 b5 b5 3e
       0.31269625 0.27327716 0.06929526 0.35490093
000160 ae 50 be 3e 5c 58 13 3f bf 27 24 3f d7 9a 00 3f
       0.3717093 0.575567 0.6412315 0.50236267
000170 74 fb a3 bd af 0a 0e 3e a2 77 65 3f 89 ef b8 3e
       -0.08006945 0.13871263 0.8963567 0.3612025
000180 c4 1b a7 3e 47 35 7f 3e d9 94 2c 3f 4c 16 ec 3d
       0.3263837 0.24922667 0.67414623 0.1152769
000190 b2 ac 35 3f 57 40 cf 3e ed d4 10 3f 51 cf a5 3e
       0.7096664 0.40478775 0.565749 0.32384732
0001a0 bf c2 98 3d 64 d3 41 3f c5 e1 7a 3e ab 92 42 3f
       0.0745902 0.7571318 0.24500187 0.7600505
0001b0 36 90 02 3f 2c 9d 66 3f 60 84 72 3f 50 78 30 3e
       0.510013 0.90083575 0.9473324 0.17233396
0001c0 d9 36 b0 3e ef f4 78 3e 9d 8b 30 3e 13 bf 1c 3f
       0.34416845 0.24312185 0.17240758 0.61229056
0001d0 7a 80 03 3f f0 c4 31 3f 13 85 21 3f c4 33 15 3f
       0.51367915 0.6944113 0.6309368 0.58282113
0001e0 0d c4 45 3f ca b1 e3 3e 49 3f 73 3e 47 4d 0b 3f
       0.77252275 0.4447158 0.2375461 0.5441479
0001f0 11 ff 2f 3f 1c f9 04 3f 4b 74 9a 3e 14 33 2b 3f
       0.68748575 0.5194261 0.3016685 0.66874814
000200 c9 13 23 3e 57 7c 6d 3e bf 7d dd 3d a6 bb 7e 3e
       0.15925516 0.23191963 0.10815 0.2487627
000210 01 0e 47 3e e5 17 3c 3f c8 dc 43 3f 1e d2 0f 3f
       0.19438936 0.7347396 0.7650876 0.5617999
000220 a2 7e 4f 3e 5a 3a cb 3e c3 6f 73 3f e8 d7 fc 3d
       0.2026315 0.39692956 0.9509241 0.12345868
000230 77 c2 73 3f 4c 63 93 3e 36 0c f3 3e a1 8d 1e 3e
       0.95218605 0.28786695 0.47470254 0.15483715
000240 b2 1f 13 3f 9a 9c 57 3f 2b 80 12 3f b1 ab 0b 3e
       0.5747024 0.8422333 0.5722682 0.13639714
000250 93 74 75 3f d9 da b9 3e e8 27 00 3f e6 c3 13 3f
       0.95881003 0.3629978 0.5006089 0.5772079
000260 20 59 63 3f aa aa 4f 3f d7 ba 04 3f 8b f2 eb 3d
       0.8880787 0.8111979 0.51847595 0.11520871
000270 a9 fb 6d 3f 40 3d ef 3e df 0b 7b 3e 25 da 10 3f
       0.9296213 0.46726418 0.24516247 0.5658286
000280 85 a3 09 3f 53 d6 db 3e 0e 0b dd 3e 3a 59 61 3f
       0.53765136 0.42936954 0.43172497 0.88026774
000290 9c b8 c3 3e 45 b8 03 3f 6e 05 aa 3e 09 38 e5 3e
       0.38226783 0.5145305 0.33207268 0.44769314
0002a0 29 5d 20 3f 5d 4f bb 3d 93 ef 42 3f 80 be 2a 3f
       0.6264215 0.09145997 0.7614681 0.6669693
0002b0 12 1b 00 3f c9 6b 56 3f b0 89 c2 3d de 4f 45 3e
       0.50041306 0.8375822 0.09498918 0.19268748
0002c0 23 37 ce 3d 7c a5 45 3e 11 31 c0 3d dd 7f 32 3f
       0.1006911 0.19301409 0.09384359 0.69726354
0002d0 30 20 3a 3f f2 2b a9 3e 32 54 fa 3d 5e 3a 5f 3f
       0.72705364 0.3304134 0.1222309 0.87198436
0002e0 62 ad df 3e 05 69 f6 3e c1 49 b7 3e 9b d7 4e 3f
       0.43686968 0.48127 0.35798457 0.8079774
0002f0 03 54 38 3f 06 a0 8a 3e 26 e1 33 3f bf ae a1 3e
       0.7200319 0.27075213 0.70265424 0.31578633
000300 22 7b 94 3e 6e 51 7b 3f 60 5a 10 3f ff 81 09 3f
       0.29000193 0.98171127 0.563879 0.53713983
000310 0e 40 0e 3f 5b d0 5a 3f b4 45 c0 3e 6c 89 1b 3f
       0.5556649 0.85474175 0.3755318 0.60756564

layers.2.bias f4 [200]
000000 39 2c b1 bd 1c da a9 bd aa 4a 25 3e ef f8 da 3d
       -0.08651013 -0.08293554 0.16141763 0.106920116
000010 ef 42 0c 3e bf 88 f0 bd 6f 1a 91 3d d7 16 e9 3d
       0.13697408 -0.11744832 0.0708512 0.113813095
000020 3c af c2 bd 13 99 0d 3e 86 ac 8b 3d b1 94 04 3e
       -0.095060796 0.13827924 0.068200156 0.12947346
000030 8e 04 7c bd c8 cd ff 3d 7e b9 a2 3d db 92 ed 3d
       -0.06152778 0.124904215 0.07945536 0.11600276
000040 3e 1c f7 bd 67 5f c1 3d 06 ab 02 3e d9 c0 0e 3e
       -0.12065934 0.09442025 0.12760553 0.13940753
000050 08 da c7 bd fc 79 c8 bd 4b 49 3e bd 5d d2 e9 bd
       -0.09758383 -0.09788892 -0.046456616 -0.11417077
000060 b4 4b 54 3d 65 f8 08 be 75 01 33 bc 4a 8a 0c 3e
       0.05183001 -0.13376005 -0.01092564 0.13724628
000070 2b 4c e4 bd 35 f8 12 3e 97 68 9d 3d 1f a5 eb bd
       -0.111473404 0.14352496 0.076859646 -0.11506104
000080 fe 7a 34 bd 65 cb cf bd 4a 76 ed 3d 4f 4c 08 be
       -0.044062607 -0.10146216 0.115948275 -0.1331036
000090 9d 3b f6 3d 79 ce d6 bd 5f 3e dd 3d 17 e4 eb 3d
       0.12023089 -0.104886 0.10802912 0.11518114
0000a0 86 74 40 bd ec d0 8f bd 7d 6c f0 bd dc ee ef bd
       -0.046986125 -0.070222706 -0.117394425 -0.11715481
0000b0 a7 22 92 bd 48 e4 ea bd b9 83 97 bd b2 df c9 bd
       -0.07135516 -0.114693224 -0.07398171 -0.098571196
0000c0 e4 26 1f 3e ca 70 a2 bd 83 d4 13 bd a6 47 64 bd
       0.1554218 -0.07931669 -0.03609134 -0.05573239
0000d0 a0 62 04 bd 4f 29 ef bd 36 28 4f 3d 16 3a db bd
       -0.03232062 -0.11677801 0.050575458 -0.107044384
0000e0 6e 71 04 3e f7 c1 a3 bd 0e e7 be bd 65 d5 9e 3d
       0.12933895 -0.0799598 -0.09321414 0.077555455
0000f0 89 f0 e0 3d 7d 9e 04 3e 65 62 0f 3e f3 96 06 3e
       0.109833784 0.12951083 0.14002378 0.1314352
000100 be b5 11 3e 55 a5 a4 3d 34 23 e4 bd ea 77 db bd
       0.14229485 0.08039347 -0.11139527 -0.10716231
000110 74 89 e0 bd 37 ad e9 3d 7e e6 e6 3d be d7 ea 3d
       -0.10963717 0.11409991 0.11274432 0.11466931
000120 d4 df d5 bd 4e 2c de bd c0 b7 3a bc a6 76 da 3d
       -0.104430825 -0.10848294 -0.0113963485 0.10667162
000130 20 ca 98 bd 33 ff d0 bd 1f 4c c8 3d 18 6f aa bd
       -0.07460427 -0.102049254 0.09780144 -0.08321971
000140 f7 73 f7 3d 26 af 84 bd cb 61 e4 bd 80 6c 83 bd
       0.120826654 -0.064787194 -0.11151465 -0.06417179
000150 29 df f8 3d da 90 92 bd 96 3c 66 3d 17 66 a4 bd
       0.121519394 -0.071565345 0.056210123 -0.080272846
000160 f4 2b 3f bc 11 d2 b1 bd 87 a1 2b bd 72 39 e9 bd
       -0.011668194 -0.08682645 -0.04190209 -0.1138791
000170 d7 35 6f bd 68 4d 53 bd a9 fe d0 bd 41 37 80 3c
       -0.058400955 -0.051587492 -0.102048226 0.015651347
000180 1c 53 fa 3d fa 3e eb bd a4 2b d4 bd 42 a1 84 bd
       0.12222883 -0.11486621 -0.10359886 -0.0647607
000190 4a e7 2a bd d2 6f eb bd 91 7b 20 be 88 25 f2 3d
       -0.04172448 -0.114959374 -0.15672137 0.11823565
0001a0 a9 c5 80 bd 41 a6 fd bd 5e 34 f4 bc aa bc fd 3d
       -0.06287701 -0.12385226 -0.029810127 0.123895004
0001b0 8e 76 ef 3d 97 7d eb bd 9f c2 83 bd 9b 08 ea 3d
       0.116925344 -0.11498564 -0.064336054 0.114274226
0001c0 af 98 e6 bd 44 7a 04 3e 08 6f a0 3d c5 9f a5 3d
       -0.11259591 0.12937266 0.078336775 0.08087114
0001d0 03 b1 ef 3d 90 a2 37 bd 6b 92 d4 bd b4 b3 39 3d
       0.11703684 -0.044832766 -0.103794895 0.045337394
0001e0 bf 81 e4 3d 7c c1 1a 3e fc 58 19 bc 5e 7c e6 bd
       0.111575596 0.15112871 -0.009359594 -0.1125419
0001f0 f4 c4 db bd a2 3c 05 3e 8d 8a c0 bd b6 de 45 3e
       -0.10730925 0.13011411 -0.094014265 0.19323239
000200 50 a6 07 bd 82 85 b1 3d 82 c7 52 bd b3 e2 e6 bd
       -0.033117592 0.08668043 -0.051459797 -0.11273708
000210 98 0b 9d bd 85 d2 cb bd e1 d1 d9 bd d4 1e 10 3e
       -0.07668227 -0.09952263 -0.10635734 0.1407426
000220 54 20 d4 bc f5 30 e1 bd 5e 73 f8 3d e5 e0 70 bd
       -0.025894322 -0.10995666 0.121313795 -0.058808226
000230 80 e3 e3 3d 4d c2 5e bd 6c 36 08 3e 4e 55 e7 bd
       0.111273766 -0.05438452 0.1330201 -0.112955675
000240 f9 16 e8 bd d6 af eb bd 7e 6a f5 3d c1 2b ee bd
       -0.11332507 -0.115081474 0.119832024 -0.11629439
000250 19 f0 db bc f8 08 ef bd 41 b9 06 3d 68 03 da bd
       -0.026847886 -0.116716325 0.032891516 -0.10645181
000260 2f af 3e bd 64 4a de bd 7d 74 15 3e a7 a1 5b 3d
       -0.046553787 -0.10854033 0.14595218 0.05362096
000270 68 f8 e0 3d 61 6e 8f bd 94 0a 8c bd b5 28 dc bd
       0.1098488 -0.07003475 -0.06837955 -0.10749952
000280 0b 2f c4 bd 32 02 df bd 80 c2 ff bd 0c 62 8c bd
       -0.09579285 -0.108890906 -0.1248827 -0.068546385
000290 bf 8e e4 bd a3 be d2 bd 50 c2 52 bd ca 81 d9 bd
       -0.11160039 -0.10290267 -0.051454842 -0.106204584
0002a0 b2 3a dc bd 32 8c b5 3d b9 b8 d0 bd 4c 5d 85 bd
       -0.10753383 0.08864631 -0.10191483 -0.065119356
0002b0 c1 a2 0a be f1 d3 ee 3d 9b cf 8e bd 2c 14 02 3e
       -0.13538648 0.11661518 -0.06973191 0.12703007
0002c0 77 63 c1 bd 7d eb 72 bd 4f 23 78 3d 4a 99 b9 3d
       -0.094427995 -0.05930661 0.060580548 0.09062441
0002d0 73 34 f1 bd 87 89 b3 3d ad ca b1 bd ba c7 e4 bd
       -0.11777582 0.08766466 -0.086812355 -0.11170907
0002e0 82 b9 f0 3d cd 13 f1 bd 16 e4 a2 3d 95 27 e8 bd
       0.11754133 -0.11771355 0.0795366 -0.11335675
0002f0 ca ac 01 3e d3 1e 71 bc 48 a7 e2 3d cc 50 f0 3d
       0.1266357 -0.014716822 0.110670626 0.11734161
000300 f8 c8 fa 3d f8 71 dd bd 87 1c e3 bd 88 98 02 3e
       0.12245363 -0.108127534 -0.110894255 0.12753499
000310 da 5a d7 bd 1f e5 c5 bd 31 87 aa bc 91 0f ac 3d
       -0.105153754 -0.09662842 -0.020816417 0.084014066

layers.2.running_mean f4 [200]
000000 92 1d 01 3e fa 80 23 3e 10 dd 90 3d 2a 1f a6 3e
       0.12608936 0.1596717 0.07073414 0.3244565
000010 a4 75 aa 3e f9 bb 37 3e 9c 29 56 3e f8 99 85 3e
       0.33292878 0.179428 0.2091431 0.2609403
000020 52 d5 26 3e 49 a5 99 3e 9b 4f f2 3d 41 39 a8 3e
       0.16292313 0.30008915 0.1183159 0.3285618
000030 0e 26 6d 3d b1 f9 5d 3e 5b aa 96 3e 5e 5d 86 3e
       0.05789762 0.21677281 0.29426846 0.2624311
000040 a5 de 8a 3e f0 cc eb 3d e0 99 89 3e 83 85 61 3e
       0.2712299 0.11513698 0.2687521 0.22023587
000050 3a 26 e5 3e 45 92 20 3e ac 98 0d 3e 86 7a 71 3e
       0.44755727 0.15680797 0.13827771 0.23581895
000060 6a e7 a7 3d 56 c1 ad 3e 2b 96 b6 3e 0d 8d 84 3e
       0.081984356 0.33936566 0.35661444 0.25888863
000070 70 0c d7 3e f6 77 09 3f 9a 06 4c 3e 24 fe c6 3d
       0.42001677 0.5369867 0.19924393 0.09716442
000080 a4 a4 bb 3d cb 07 44 3e a9 1d f8 3d f8 da 73 3e
       0.09162262 0.19143598 0.12115032 0.23813999
000090 7f 51 f6 3d 28 8c cb 3e 76 34 8e 3e a7 dc 90 3e
       0.12027263 0.39755368 0.277744 0.28293344
0000a0 61 0b 8e 3d e2 fa b6 3d ce 1f b6 3e 27 bf 7e 3e
       0.06935764 0.08934571 0.3557114 0.24877606
0000b0 b9 ce a8 3d 8c 33 da 3d 8c 86 8d 3e 58 f5 0a 3e
       0.08242554 0.10654363 0.27641714 0.13570154
0000c0 cd d7 44 3d b5 07 77 3d 34 91 54 3d fa 5d 4f 3e
       0.048057366 0.060310084 0.05189629 0.20250693
0000d0 bd e4 2a 3e 1c 22 e0 3e 16 43 34 3e 2f a7 1b 3d
       0.16688819 0.43776023 0.17603716 0.038001236
0000e0 2a cf 8b 3d 80 27 15 3f 15 69 ba 3e 52 78 03 3e
       0.06826623 0.582634 0.36408296 0.12838867
0000f0 91 f4 a0 3e da 41 16 3d e8 57 08 3f 72 11 25 3e
       0.3143659 0.036683895 0.53259134 0.16119936
000100 a3 6b 05 3f ad 01 83 3e 38 0a 35 3e d6 fc e2 3d
       0.52117366 0.25587216 0.1767968 0.11083381
000110 3a 3a a9 3d db 7f bc 3e e1 12 45 3e 14 62 42 3e
       0.08263059 0.36816296 0.19245483 0.18982726
000120 47 7b 99 3e 39 db 94 3e bb b8 7d 3e 0e cd e0 3e
       0.29976866 0.29073504 0.247775 0.43906444
000130 38 3a 8c 3e c0 18 2f 3e 9c 66 bf 3e bf 64 5b 3d
       0.27388167 0.17099285 0.37382972 0.053562876
000140 14 21 03 3e 4a 73 3f 3e 1b 42 f1 3c 2c b2 8e 3e
       0.12805587 0.18696323 0.029450467 0.2787031
000150 ec 8d 95 3e 40 a2 0b 3e ce f2 03 3f 1f 31 9f 3d
       0.2920984 0.13636112 0.51542366 0.07773041
000160 78 48 19 3e 71 1f 1f 3e e0 25 53 3e 8f f5 a4 3d
       0.14969051 0.15539338 0.20619917 0.08054649
000170 f6 59 7f 3e a7 d0 37 3c aa 82 e9 3e df 5b 00 3e
       0.24936661 0.01121918 0.456075 0.12535046
000180 ec af 97 3e ff 68 4b 3e 41 61 26 3e b4 33 5d 3d
       0.29626405 0.19864272 0.16248037 0.054004386
000190 08 6f 41 3e 36 f5 06 3e 13 b8 44 3c 64 cf 34 3e
       0.18890011 0.13179478 0.012006777 0.17657238
0001a0 f1 67 ba 3d 37 0b b6 3e 60 87 44 3e 90 f5 7d 3e
       0.091018565 0.3555543 0.19192266 0.24800706
0001b0 68 e4 df 3e bc fc 42 3e ce ae 2f 3e dc aa b3 3e
       0.43728948 0.19041723 0.17156526 0.35091293
0001c0 04 df 20 3e 02 85 00 3e e1 aa 61 3e 72 b6 5f 3e
       0.15710074 0.12550738 0.22037841 0.21846941
0001d0 5a d8 79 3e 2a b5 2d 3e bd 02 7c 3e 91 a5 2e 3c
       0.24398938 0.1696364 0.2461042 0.010659591
0001e0 c9 05 99 3e 78 7c 49 3e 08 88 3e 3e 57 18 97 3e
       0.29887226 0.19676387 0.1860658 0.29510757
0001f0 02 92 89 3e 12 1b c0 3e b8 ea ef 3d 81 7a 04 3e
       0.26869208 0.37520653 0.11714691 0.12937357
000200 d9 5c 92 3c 71 6d 8b 3e 2e bc 28 3e 6c ae e4 3d
       0.017866539 0.27231935 0.16478035 0.11166081
000210 fc 0f 73 3e 73 20 56 3e 54 7d bc 3e db 44 2d 3d
       0.23736566 0.20910816 0.36814368 0.042301994
000220 aa 90 f8 3d 00 78 b5 3e 20 c9 92 3e c4 a5 fb 3d
       0.121369675 0.35443115 0.2866907 0.12287477
000230 94 f7 b4 3e ee 15 31 3e 70 0e 2b 3e be 2d 14 3e
       0.35345137 0.17293522 0.16704726 0.14470574
000240 5b b7 10 3e 9b f7 db 3d 6e fa 19 3e 64 62 f5 3d
       0.14132445 0.10740586 0.15036938 0.11981657
000250 72 b5 61 3e df 1f 3b 3e e1 31 53 3e fd 82 56 3e
       0.22041872 0.18273877 0.20624496 0.20948406
000260 3f 08 a9 3d 3a c4 28 3e 69 4f b0 3e 34 44 10 3e
       0.08253526 0.16481104 0.34435585 0.14088517
000270 3a 8e fe 3d 98 ed 31 3e 5b 08 d8 3d 9c 54 c8 3d
       0.12429471 0.17375791 0.10548469 0.09781763
000280 fe 14 b2 3e e4 0d 0d 3e 05 df 92 3e da 22 73 3e
       0.3478164 0.1377483 0.28685775 0.23743764
000290 f0 15 9a 3d 6c 1f 69 3e e3 c1 4e 3e c4 a2 59 3d
       0.075237155 0.22765893 0.2019115 0.05313374
0002a0 16 94 90 3e 71 2d 45 3e a3 54 97 3d 68 b5 a7 3e
       0.2823798 0.19255616 0.0738919 0.3275559
0002b0 53 7e 0e 3e ef 2f 3c 3e 8c 5b 05 3e 8a d2 8d 3e
       0.13915376 0.1837766 0.13023204 0.2769969
0002c0 b5 17 9a 3e 9b a5 fe 3d 49 10 ab 3e 31 f0 f3 3d
       0.30096212 0.124339305 0.33410862 0.11911047
0002d0 24 73 ec 3d e4 c4 18 3e 0f 89 8b 3e 94 6d 2b 3e
       0.11545399 0.14918858 0.27253005 0.1674102
0002e0 bb 29 0f 3e 05 b1 ce 3d e4 5d 6e 3e 25 2e df 3d
       0.13980763 0.100923575 0.23278004 0.10897473
0002f0 3a 4b c2 3e ba 5b 88 3d fa fc 5a 3e 69 8d 8a 3d
       0.37948018 0.066581205 0.21385565 0.06765253
000300 28 80 87 3e 2d ce 2f 3e 99 14 be 3d b3 cf de 3e
       0.26464963 0.17168494 0.092812724 0.43517837
000310 5b 38 36 3e 65 fb d2 3e 4d c6 20 3e 7a 82 a5 3e
       0.17794935 0.41207424 0.15700646 0.32326108

layers.2.running_var f4 [200]
000000 ce a4 a6 3d 7c d6 31 3d b4 f3 a5 3c 5a 00 9f 3d
       0.08136903 0.04341744 0.020257808 0.07763739
000010 69 c6 42 3d ae 45 a5 3d 56 10 db 3d 39 e7 dc 3d
       0.0475525 0.08069931 0.10696475 0.1078629
000020 00 98 31 3d 7e 25 61 3d dc e9 5c 3c f6 7b 2f 3d
       0.04335785 0.054967396 0.013483491 0.042842828
000030 2d 86 fd 3c b8 37 1a 3d 53 51 15 3e bd f2 a0 3d
       0.030947769 0.037650794 0.14581804 0.07858799
000040 7b 51 66 3d 0f 71 4e 3d d8 56 b3 3d 51 56 24 3c
       0.05623005 0.05040079 0.087567985 0.010030345
000050 6a 14 99 3e 11 93 a2 3d c9 a0 83 3d 2f 55 6c 3d
       0.29898387 0.07938207 0.06427152 0.057698425
000060 3f cc c6 3b 45 f9 e4 3d 1b 5a 65 3e b1 69 7f 3d
       0.0060668285 0.11180357 0.22397654 0.062356655
000070 b3 72 15 3e d9 4e b1 3d dd cd df 3c 82 dc 3f 3d
       0.14594536 0.08657617 0.027319843 0.046841152
000080 39 52 80 3d 6d 53 12 3d 5d 5f f2 3c 5e a2 8d 3d
       0.06265683 0.035724092 0.029586488 0.06915735
000090 29 a4 11 3d 27 d3 3f 3e ba 43 a6 3c d6 c5 01 3d
       0.035556946 0.18732892 0.020295966 0.03168281
0000a0 a0 62 00 3d dc 6b 2f 3d a3 20 25 3e 09 41 8a 3d
       0.031344056 0.042827472 0.16125731 0.06750686
0000b0 5e d6 34 3d 80 c9 2b 3d 9e 8c b4 3d 9d 9e 2b 3d
       0.04414975 0.041940212 0.08815883 0.041899312
0000c0 b6 3f 90 3b bd 82 eb 3c a3 ca ec 3c 95 ca 33 3d
       0.004402126 0.028748864 0.028905218 0.04389437
0000d0 a0 e5 ee 3d 57 6f 2f 3e 85 6a ad 3c c1 57 b9 3c
       0.11664891 0.17132317 0.021168957 0.022624852
0000e0 1b a1 9c 3c 39 80 b8 3e b8 37 40 3e 55 10 4a 3d
       0.01911979 0.36035326 0.18771255 0.04933198
0000f0 1d 32 06 3e f2 4f 0d 3c fb e2 df 3d 33 61 a9 3c
       0.13105054 0.0086250175 0.10931965 0.020676231
000100 b5 cb 32 3e c5 38 6a 3d 0f 8e 93 3d 8e 67 62 3d
       0.1746052 0.057183046 0.0720483 0.05527454
000110 b0 21 3d 3d bd 30 1d 3d 01 03 84 3c bd 79 80 3d
       0.046174705 0.03837656 0.016114714 0.0627322
000120 63 b6 bd 3d 1c 23 47 3d da 71 7c 3d 87 6d 32 3e
       0.09263303 0.048617467 0.061632015 0.17424594
000130 87 2a ee 3d a8 d4 92 3d bd a6 12 3e 4c 83 2a 3d
       0.11629205 0.07169467 0.14321418 0.04162912
000140 d8 5a 94 3d c1 22 2d 3d b2 38 8a 3c 5e 65 d9 3d
       0.072438896 0.042269472 0.016872738 0.106150374
000150 ac d5 d8 3d ac bc ef 3c 8d a1 9c 3d 63 aa 50 3d
       0.1058763 0.02926477 0.07648001 0.050943743
000160 8e bc 10 3d 0c aa ba 3d 27 98 a4 3d 60 55 2f 3d
       0.03533607 0.09114465 0.08036833 0.04280603
000170 9b 68 49 3d c7 d5 fb 3a 0b 76 78 3e fe 23 dd 3c
       0.049172025 0.0019213491 0.2426378 0.026994701
000180 77 a5 31 3d 37 9f 90 3d 1a 50 8b 3d 8c 4e c2 3c
       0.04337069 0.07061618 0.068023875 0.023719095
000190 51 c3 6a 3d 00 41 88 3d 3d 49 79 3a 5e 3b 3c 3d
       0.057315174 0.06653023 0.00095095095 0.045955054
0001a0 d6 92 6f 3d 80 59 f7 3d 0a 33 83 3d 71 3d 83 3d
       0.058489643 0.12077618 0.06406219 0.064082034
0001b0 e9 5a 1c 3e 1a 0d a7 3d 7c 7f 5a 3d 47 e2 0c 3e
       0.15269054 0.08156796 0.053344235 0.13758193
0001c0 e3 4f b0 3d 64 9f 19 3d 82 86 cb 3d c4 70 c1 3d
       0.08608987 0.037505522 0.09937765 0.094453365
0001d0 80 20 ce 3d 5d 79 33 3d 6d 81 d1 3d fb 01 41 3c
       0.10064793 0.043816913 0.10229764 0.011780257
0001e0 fe 6e f3 3d 5d ad 4a 3d 9f ad 4b 3d 2a 35 ef 3d
       0.118864045 0.04948174 0.049726125 0.11680062
0001f0 54 e3 a5 3d 39 ed 30 3d f2 91 91 3c 70 77 b6 3c
       0.081 0.043194983 0.017769787 0.02227375
000200 4d 4b b3 3b 56 21 d2 3c 5a b2 8d 3d 4f 22 3d 3d
       0.005471623 0.025650661 0.069187835 0.046175297
000210 6f 26 b2 3d 74 2f fc 3d b2 94 b7 3d a1 80 6e 3b
       0.08698737 0.123137385 0.08963908 0.0036392587
000220 76 51 32 3d 52 e8 3a 3d 5e b8 a2 3d c4 ab 66 3d
       0.04353472 0.045631714 0.079453215 0.056316152
000230 f4 60 a8 3d 66 f2 98 3d aa 04 53 3d fc 53 50 3d
       0.08221617 0.07468109 0.05151812 0.050861344
000240 d5 fd 78 3d 29 08 26 3d 9e 9f d3 3c c0 47 45 3d
       0.060788948 0.040535126 0.025832947 0.04816413
000250 ff db d8 3d 6d 76 9c 3d 2a 24 15 3e 05 d9 9f 3d
       0.10588836 0.076397754 0.14564577 0.07805065
000260 13 70 45 3d 7d 69 80 3d a6 8b 8c 3d f6 8e 6d 3c
       0.048202585 0.0627012 0.06862573 0.014499417
000270 5c 1f 0d 3d f0 1c 4d 3d 5a c6 6c 3d 86 53 59 3d
       0.034453735 0.050076425 0.05780635 0.05305817
000280 d6 76 6b 3e c7 1a 92 3d 04 a1 af 3d 5c ed 21 3e
       0.22994551 0.071340136 0.08575633 0.15813202
000290 a0 f5 35 3d a8 89 07 3e de 67 89 3d 2d 35 cf 3c
       0.0444237 0.13236105 0.06709264 0.02529391
0002a0 00 ad 23 3e cd a7 85 3d 6e a1 22 3d d6 d8 4b 3e
       0.15983963 0.06526146 0.039704733 0.19906935
0002b0 26 7d 29 3d f3 85 c7 3d c5 2a 53 3d ac 47 f9 3d
       0.041379116 0.09742346 0.05155446 0.121718735
0002c0 e4 65 68 3d 90 8e a7 3d ef e0 3c 3d 21 9c 2a 3d
       0.056737795 0.081814885 0.04611295 0.041652802
0002d0 de 7d 1e 3d 26 2b 48 3c 6c 1c da 3d ca 3a 97 3d
       0.038694255 0.012217319 0.10649952 0.0738426
0002e0 d3 9d 51 3d 9b 93 55 3d d5 c5 c3 3d 92 45 7c 3d
       0.051175904 0.05214272 0.09559218 0.061589785
0002f0 7d e3 7b 3d 8f 96 38 3d 56 b1 6c 3d 89 10 b7 3b
       0.061496247 0.04506546 0.05778631 0.005586688
000300 ec 93 30 3d 09 96 78 3d 8b 5a 88 3d 77 23 15 3d
       0.04310982 0.06068996 0.06657895 0.036410775
000310 1e a5 b4 3d 8f 26 ae 3d 9f 4a 2d 3d 8b f5 28 3e
       0.08820556 0.08503448 0.042307492 0.16499917

layers.4.weight f4 [100, 200]
000000 29 93 cf 3d 3c 4c 83 3d 35 5d 33 3d 5b 9f 88 bd
       0.101354904 0.06411025 0.04379006 -0.0667102
000010 63 a9 b3 3c 24 ce 3d 3b 91 53 a0 3c c4 b0 31 bc
       0.021931356 0.002896198 0.019571098 -0.010845367
000020 f6 f7 fc 3d 5f a0 64 bd 5e ef d1 bd 2c 18 3e bc
       0.12351982 -0.055817004 -0.10250734 -0.011602443
000030 e5 32 90 3d c5 33 bf bd 98 ec 2e bd 0f bb 98 3b
       0.07040957 -0.09336046 -0.042706102 0.004660971
000040 10 f9 b6 3d 31 d2 e5 bb a1 12 b6 bd d4 85 26 bc
       0.08934224 -0.007013582 -0.08890272 -0.010163743
000050 b1 93 12 3b 58 fe 8d 3d e5 8c 47 bb f7 3d 8c 3d
       0.0022365863 0.06933278 -0.003044897 0.06847756
000060 8e 3c 9a bd de 83 99 3c be 43 52 3c 78 d8 b8 bd
       -0.07531081 0.018739637 0.012833534 -0.09025663
000070 26 5f 12 bc ec 25 1d bd e6 23 cc bd 16 b7 41 3d
       -0.008933818 -0.038366243 -0.099677846 0.047293745
000080 60 01 bf 3d a7 7f 07 bd e8 fd c4 3c f6 f2 ab 3d
       0.09326434 -0.033080723 0.024046853 0.083959505
000090 83 e6 1c bd c7 a3 cc 3b 52 bf 4c bd a6 d6 d5 3c
       -0.03830577 0.0062451097 -0.049987145 0.026103329
0000a0 e9 61 c2 3d ba 98 fd 3c 52 16 d3 3c d1 c9 fa 3d
       0.09491331 0.030956615 0.02576748 0.12245525
0000b0 e8 e2 c1 3c 1e 34 d4 3c 91 4f 79 bd 0b a9 60 3d
       0.023667768 0.025903758 -0.060866896 0.054848712
0000c0 8a 80 ff 3c ec c4 89 bc 58 25 f2 3d ea 57 58 3c
       0.031189222 -0.016817532 0.11823529 0.013204554
0000d0 2f 3e 04 3d 04 5e c2 3d ea 3c bf bc bf 74 9c 3d
       0.032285865 0.09490588 -0.023344476 0.07639455
0000e0 0b 6a 6d bc 0e a6 0a 3d 09 08 d0 3c 69 60 5f bd
       -0.014490615 0.03384977 0.025394456 -0.054535303
0000f0 dc d9 9e bc 0f 1b 34 3c 3d 87 f4 bd d3 01 ac bd
       -0.019390993 0.010992779 -0.11939857 -0.083987854
000100 40 57 9f bd 5f 90 b2 bb f4 1d b6 3d 04 b9 e1 3b
       -0.077803135 -0.0054493393 0.08892432 0.0068885107
000110 e0 bf fe ba f6 97 e5 bd d4 3e e7 3c 38 14 95 3c
       -0.0019435845 -0.11210625 0.028228201 0.018198118
000120 b6 4f 06 3a 4f e8 ad 3d 3e 4b 40 3d 06 ae 02 bc
       0.0005123572 0.08491575 0.046946757 -0.007976061
000130 da 90 0b bd 71 9c c6 bc 15 e0 0a 3d 65 48 c3 3c
       -0.034073688 -0.024244519 0.033905108 0.023838231
000140 68 53 83 3c d8 8c b7 3d d4 05 ab 3d 26 c1 f6 ba
       0.016030982 0.08962411 0.08350721 -0.0018825873
000150 11 e9 c8 3c cc db 84 3d 52 df f7 bd 6f 09 18 3b
       0.024525197 0.064872354 -0.12103142 0.0023198982
000160 f3 75 39 3d 9a 97 65 3d ce d9 8c 3d 36 64 ea 3c
       0.0452785 0.05605278 0.068774804 0.028612237
000170 5a 72 9e 3d 30 46 c1 3d c1 9a 81 3c ca ba c7 3c
       0.077366546 0.09437215 0.015820863 0.02438106
000180 74 1b 4d bd 09 2e 5a 3d 4d ea 8d 3c ea db b3 3d
       -0.05007501 0.05326656 0.017323637 0.0878218
000190 01 af 9f 3d 10 9d 22 3d 0d bc 1a 3d 0b 1c 2e bd
       0.07797051 0.039700568 0.037776995 -0.042507213
0001a0 91 0d 9a 3d ee d9 64 bc 2b ca f8 3b e9 be 40 bc
       0.07522119 -0.013967974 0.0075924597 -0.0117642665
0001b0 f7 54 c6 bc ad 11 ae bb be 2b b5 3d a1 6a 1a 3c
       -0.024210436 -0.0053121657 0.08846234 0.009424836
0001c0 97 9a a1 3d db 12 a4 bc 0c e9 5a bd d1 0d 91 bd
       0.07890814 -0.020028522 -0.053444907 -0.070827134
0001d0 4a 16 a7 bd e8 1f e0 3c b3 81 29 bd e1 e3 00 bc
       -0.08158548 0.027358964 -0.041383456 -0.007866831
0001e0 29 05 c1 bc 8f 87 79 ba 1e a1 af bc 3a 1c 76 bc
       -0.02356203 -0.0009518796 -0.021439131 -0.015021378
0001f0 2c 42 54 3d 6a f1 c6 bd ed 3a c8 bb d9 2f e9 bd
       0.05182092 -0.09714015 -0.00611054 -0.11386079
000200 69 fa b8 3d ca d0 42 bc bd 79 36 bc a4 7c 9b bc
       0.09032137 -0.0118905995 -0.011137423 -0.018980332
000210 be 26 33 bc 72 e5 f2 bb a4 a5 62 3d 55 ec 00 3c
       -0.01093453 -0.007412606 0.05533375 0.007868846
000220 ea 1c 08 3d d1 74 c7 3d ad 5f 94 bd 4f 36 bf 3c
       0.0332307 0.09739078 -0.07244811 0.023341326
000230 4b ef 3c bd 77 f1 b0 3d a2 5e 2e bd 25 f2 50 3d
       -0.046126645 0.08639806 -0.042570718 0.051012177
000240 8d f9 73 3d a6 39 b3 3d 34 64 fa bb 4a f5 e4 3b
       0.059564162 0.0875123 -0.0076413397 0.0069872485
000250 78 32 33 39 1f 0d f8 3c 52 f4 84 3d 96 8f d6 3c
       0.00017089571 0.030279694 0.06491913 0.026191514
000260 92 c8 c4 3c 6f 61 31 3a f7 07 10 bd 92 0e 3e bd
       0.02402142 0.0006766533 -0.035163846 -0.046400614
000270 ec c8 27 bd d6 fa 4f bc 53 1e cd 3a 83 ac 8e 3d
       -0.0409631 -0.012694081 0.0015649296 0.06966498
000280 2d 47 8a 3c 14 4a 76 3a 9d f0 a5 3d 8b 7b de 3c
       0.016879642 0.0009395194 0.08102534 0.02715852
000290 b6 9d 32 3d a7 eb a5 3d 48 29 9c 3d 44 c2 44 3c
       0.043607436 0.08101588 0.07625061 0.012009207
0002a0 51 94 e1 3c 37 79 24 bd 7e fc 64 3d da 94 ac 3c
       0.027536543 -0.040154662 0.055904858 0.021067072
0002b0 8e 2a 0a bd d4 56 71 3c 8c 7f ee 3d c5 16 b6 bd
       -0.03373199 0.014730174 0.116454214 -0.08891062
0002c0 c0 db c7 3d dd 25 a9 bc 71 48 17 be b4 1e ce 3d
       0.09758711 -0.020647937 -0.14773728 0.1006445
0002d0 fd c9 f8 3c 88 ab 24 bd 05 b8 d0 3d d0 1a ed 3c
       0.030369753 -0.040202647 0.10191349 0.02894345
0002e0 b7 b3 06 3c fc f1 9b 3d ea b4 8e 3b a3 26 6c ba
       0.008221558 0.07614514 0.0043550627 -0.0009008443
0002f0 3e 9c b3 bd 1f ee 88 3d 26 7b 4e 3c 7b a0 ac bb
       -0.08770035 0.06686043 0.012602603 -0.005268154
000300 59 4d 20 3c 4f d3 84 3d 2e 4a 4a 3d 2f f7 15 bd
       0.009784066 0.064856164 0.04938715 -0.036612686
000310 85 bf 2d 3d b1 e2 fa 3b bd 05 b6 3d 19 73 e8 3c
       0.042418975 0.0076564183 0.08887813 0.028375195
000320 9a 87 34 3d 4c a4 0e 3d ef ae 89 bd 6e 26 f5 3c
       0.044074632 0.034824654 -0.06722819 0.029925551
000330 d7 97 8a bd 73 05 85 3d 20 76 22 3d fd 99 21 bd
       -0.067672424 0.0649518 0.039663434 -0.039453495
000340 ff ad 51 3d 20 b7 99 bc c8 f1 3d 3d 19 35 e5 3a
       0.051191326 -0.018764079 0.04637316 0.0017487138
000350 3b 9d 83 bd c8 43 2f bd f0 f3 bc bb 77 81 84 bc
       -0.06426474 -0.04278925 -0.0057663843 -0.016175015
000360 4a 5b 2c 3d 04 02 ce bc d0 98 5d bc c2 f2 5e 3d
       0.042079248 -0.025147445 -0.013525203 0.05443073
000370 cf b4 05 bd af 68 f9 3c 69 e0 e4 3c 81 4e 81 3d
       -0.032643136 0.030445425 0.027939038 0.063138016
000380 a9 5e df 3c e7 8a c2 3b 67 6c d5 bc c1 b4 36 3c
       0.027266817 0.0059369686 -0.026052667 0.0111514935
000390 4e ac dd 3c 78 8e a9 3c bf ae 44 3c c8 e7 ed 3d
       0.0270597 0.020697817 0.012004553 0.116164744
0003a0 df 43 20 3d 4c 37 e7 3b 2e 63 96 bd 34 30 36 bc
       0.039127227 0.0070561524 -0.07343136 -0.011119891
0003b0 88 ba 1f bd be 72 8e bd 0f 24 08 3d 91 4a 7c 3c
       -0.03899625 -0.06955479 0.033237513 0.015398637
0003c0 8b eb 8f 3d 14 15 ce 3c de 44 ab 3d 3b 71 71 3d
       0.07027348 0.025156535 0.08362745 0.058945876
0003d0 7f b4 70 3d 4d 89 50 3d 46 04 f4 bc a8 60 d0 3c
       0.058765884 0.05091219 -0.029787194 0.025436714
0003e0 b5 e9 13 bd 41 19 5c 3c 45 f5 e1 bd 7c a8 de bc
       -0.036111552 0.013433755 -0.110331096 -0.027179949
0003f0 f6 1e 87 bb 48 d7 eb 3c 38 7f da 3d ba ec c3 3d
       -0.004123564 0.028789178 0.10668796 0.095666364
